{"format": "graph-model", "generatedBy": "2.20.0", "convertedBy": "TensorFlow.js Converter v4.22.0", "signature": {"inputs": {"input_layer": {"name": "input_layer:0", "dtype": "DT_FLOAT", "tensorShape": {"dim": [{"size": "-1"}, {"size": "224"}, {"size": "224"}, {"size": "3"}]}}}, "outputs": {"output_0": {"name": "Identity:0", "dtype": "DT_FLOAT", "tensorShape": {"dim": [{"size": "-1"}, {"size": "5"}]}}}}, "modelTopology": {"node": [{"name": "StatefulPartitionedCall/functional_1/zero_padding2d_1/Const", "op": "Const", "attr": {"dtype": {"type": "DT_INT32"}, "value": {"tensor": {"dtype": "DT_INT32", "tensorShape": {"dim": [{"size": "4"}, {"size": "2"}]}}}}}, {"name": "StatefulPartitionedCall/functional_1/conv1_conv_1/convolution/merged_input", "op": "Const", "attr": {"dtype": {"type": "DT_FLOAT"}, "value": {"tensor": {"dtype": "DT_FLOAT", "tensorShape": {"dim": [{"size": "7"}, {"size": "7"}, {"size": "3"}, {"size": "64"}]}}}}}, {"name": "StatefulPartitionedCall/functional_1/conv1_bn_1/batchnorm/sub", "op": "Const", "attr": {"dtype": {"type": "DT_FLOAT"}, "value": {"tensor": {"dtype": "DT_FLOAT", "tensorShape": {"dim": [{"size": "1"}, {"size": "1"}, {"size": "1"}, {"size": "64"}]}}}}}, {"name": "StatefulPartitionedCall/functional_1/zero_padding2d_1_2/Const", "op": "Const", "attr": {"dtype": {"type": "DT_INT32"}, "value": {"tensor": {"dtype": "DT_INT32", "tensorShape": {"dim": [{"size": "4"}, {"size": "2"}]}}}}}, {"name": "StatefulPartitionedCall/functional_1/conv2_block1_0_bn_1/batchnorm/mul", "op": "Const", "attr": {"dtype": {"type": "DT_FLOAT"}, "value": {"tensor": {"dtype": "DT_FLOAT", "tensorShape": {"dim": [{"size": "1"}, {"size": "1"}, {"size": "1"}, {"size": "64"}]}}}}}, {"name": "StatefulPartitionedCall/functional_1/conv2_block1_0_bn_1/batchnorm/sub", "op": "Const", "attr": {"dtype": {"type": "DT_FLOAT"}, "value": {"tensor": {"dtype": "DT_FLOAT", "tensorShape": {"dim": [{"size": "1"}, {"size": "1"}, {"size": "1"}, {"size": "64"}]}}}}}, {"name": "StatefulPartitionedCall/functional_1/conv2_block1_1_conv_1/convolution/merged_input", "op": "Const", "attr": {"dtype": {"type": "DT_FLOAT"}, "value": {"tensor": {"dtype": "DT_FLOAT", "tensorShape": {"dim": [{"size": "1"}, {"size": "1"}, {"size": "64"}, {"size": "128"}]}}}}}, {"name": "StatefulPartitionedCall/functional_1/conv2_block1_1_bn_1/batchnorm/sub", "op": "Const", "attr": {"dtype": {"type": "DT_FLOAT"}, "value": {"tensor": {"dtype": "DT_FLOAT", "tensorShape": {"dim": [{"size": "1"}, {"size": "1"}, {"size": "1"}, {"size": "128"}]}}}}}, {"name": "StatefulPartitionedCall/functional_1/conv2_block1_2_conv_1/convolution/ReadVariableOp", "op": "Const", "attr": {"dtype": {"type": "DT_FLOAT"}, "value": {"tensor": {"dtype": "DT_FLOAT", "tensorShape": {"dim": [{"size": "3"}, {"size": "3"}, {"size": "128"}, {"size": "32"}]}}}}}, {"name": "StatefulPartitionedCall/functional_1/conv2_block1_concat_1/concat/axis", "op": "Const", "attr": {"dtype": {"type": "DT_INT32"}, "value": {"tensor": {"dtype": "DT_INT32", "tensorShape": {}}}}}, {"name": "StatefulPartitionedCall/functional_1/conv2_block2_0_bn_1/batchnorm/mul", "op": "Const", "attr": {"dtype": {"type": "DT_FLOAT"}, "value": {"tensor": {"dtype": "DT_FLOAT", "tensorShape": {"dim": [{"size": "1"}, {"size": "1"}, {"size": "1"}, {"size": "96"}]}}}}}, {"name": "StatefulPartitionedCall/functional_1/conv2_block2_0_bn_1/batchnorm/sub", "op": "Const", "attr": {"dtype": {"type": "DT_FLOAT"}, "value": {"tensor": {"dtype": "DT_FLOAT", "tensorShape": {"dim": [{"size": "1"}, {"size": "1"}, {"size": "1"}, {"size": "96"}]}}}}}, {"name": "StatefulPartitionedCall/functional_1/conv2_block2_1_conv_1/convolution/merged_input", "op": "Const", "attr": {"dtype": {"type": "DT_FLOAT"}, "value": {"tensor": {"dtype": "DT_FLOAT", "tensorShape": {"dim": [{"size": "1"}, {"size": "1"}, {"size": "96"}, {"size": "128"}]}}}}}, {"name": "StatefulPartitionedCall/functional_1/conv2_block2_1_bn_1/batchnorm/sub", "op": "Const", "attr": {"dtype": {"type": "DT_FLOAT"}, "value": {"tensor": {"dtype": "DT_FLOAT", "tensorShape": {"dim": [{"size": "1"}, {"size": "1"}, {"size": "1"}, {"size": "128"}]}}}}}, {"name": "StatefulPartitionedCall/functional_1/conv2_block2_2_conv_1/convolution/ReadVariableOp", "op": "Const", "attr": {"dtype": {"type": "DT_FLOAT"}, "value": {"tensor": {"dtype": "DT_FLOAT", "tensorShape": {"dim": [{"size": "3"}, {"size": "3"}, {"size": "128"}, {"size": "32"}]}}}}}, {"name": "StatefulPartitionedCall/functional_1/conv2_block2_concat_1/concat/axis", "op": "Const", "attr": {"dtype": {"type": "DT_INT32"}, "value": {"tensor": {"dtype": "DT_INT32", "tensorShape": {}}}}}, {"name": "StatefulPartitionedCall/functional_1/conv2_block3_0_bn_1/batchnorm/mul", "op": "Const", "attr": {"dtype": {"type": "DT_FLOAT"}, "value": {"tensor": {"dtype": "DT_FLOAT", "tensorShape": {"dim": [{"size": "1"}, {"size": "1"}, {"size": "1"}, {"size": "128"}]}}}}}, {"name": "StatefulPartitionedCall/functional_1/conv2_block3_0_bn_1/batchnorm/sub", "op": "Const", "attr": {"dtype": {"type": "DT_FLOAT"}, "value": {"tensor": {"dtype": "DT_FLOAT", "tensorShape": {"dim": [{"size": "1"}, {"size": "1"}, {"size": "1"}, {"size": "128"}]}}}}}, {"name": "StatefulPartitionedCall/functional_1/conv2_block3_1_conv_1/convolution/merged_input", "op": "Const", "attr": {"dtype": {"type": "DT_FLOAT"}, "value": {"tensor": {"dtype": "DT_FLOAT", "tensorShape": {"dim": [{"size": "1"}, {"size": "1"}, {"size": "128"}, {"size": "128"}]}}}}}, {"name": "StatefulPartitionedCall/functional_1/conv2_block3_1_bn_1/batchnorm/sub", "op": "Const", "attr": {"dtype": {"type": "DT_FLOAT"}, "value": {"tensor": {"dtype": "DT_FLOAT", "tensorShape": {"dim": [{"size": "1"}, {"size": "1"}, {"size": "1"}, {"size": "128"}]}}}}}, {"name": "StatefulPartitionedCall/functional_1/conv2_block3_2_conv_1/convolution/ReadVariableOp", "op": "Const", "attr": {"dtype": {"type": "DT_FLOAT"}, "value": {"tensor": {"dtype": "DT_FLOAT", "tensorShape": {"dim": [{"size": "3"}, {"size": "3"}, {"size": "128"}, {"size": "32"}]}}}}}, {"name": "StatefulPartitionedCall/functional_1/conv2_block3_concat_1/concat/axis", "op": "Const", "attr": {"dtype": {"type": "DT_INT32"}, "value": {"tensor": {"dtype": "DT_INT32", "tensorShape": {}}}}}, {"name": "StatefulPartitionedCall/functional_1/conv2_block4_0_bn_1/batchnorm/mul", "op": "Const", "attr": {"dtype": {"type": "DT_FLOAT"}, "value": {"tensor": {"dtype": "DT_FLOAT", "tensorShape": {"dim": [{"size": "1"}, {"size": "1"}, {"size": "1"}, {"size": "160"}]}}}}}, {"name": "StatefulPartitionedCall/functional_1/conv2_block4_0_bn_1/batchnorm/sub", "op": "Const", "attr": {"dtype": {"type": "DT_FLOAT"}, "value": {"tensor": {"dtype": "DT_FLOAT", "tensorShape": {"dim": [{"size": "1"}, {"size": "1"}, {"size": "1"}, {"size": "160"}]}}}}}, {"name": "StatefulPartitionedCall/functional_1/conv2_block4_1_conv_1/convolution/merged_input", "op": "Const", "attr": {"dtype": {"type": "DT_FLOAT"}, "value": {"tensor": {"dtype": "DT_FLOAT", "tensorShape": {"dim": [{"size": "1"}, {"size": "1"}, {"size": "160"}, {"size": "128"}]}}}}}, {"name": "StatefulPartitionedCall/functional_1/conv2_block4_1_bn_1/batchnorm/sub", "op": "Const", "attr": {"dtype": {"type": "DT_FLOAT"}, "value": {"tensor": {"dtype": "DT_FLOAT", "tensorShape": {"dim": [{"size": "1"}, {"size": "1"}, {"size": "1"}, {"size": "128"}]}}}}}, {"name": "StatefulPartitionedCall/functional_1/conv2_block4_2_conv_1/convolution/ReadVariableOp", "op": "Const", "attr": {"dtype": {"type": "DT_FLOAT"}, "value": {"tensor": {"dtype": "DT_FLOAT", "tensorShape": {"dim": [{"size": "3"}, {"size": "3"}, {"size": "128"}, {"size": "32"}]}}}}}, {"name": "StatefulPartitionedCall/functional_1/conv2_block4_concat_1/concat/axis", "op": "Const", "attr": {"dtype": {"type": "DT_INT32"}, "value": {"tensor": {"dtype": "DT_INT32", "tensorShape": {}}}}}, {"name": "StatefulPartitionedCall/functional_1/conv2_block5_0_bn_1/batchnorm/mul", "op": "Const", "attr": {"dtype": {"type": "DT_FLOAT"}, "value": {"tensor": {"dtype": "DT_FLOAT", "tensorShape": {"dim": [{"size": "1"}, {"size": "1"}, {"size": "1"}, {"size": "192"}]}}}}}, {"name": "StatefulPartitionedCall/functional_1/conv2_block5_0_bn_1/batchnorm/sub", "op": "Const", "attr": {"dtype": {"type": "DT_FLOAT"}, "value": {"tensor": {"dtype": "DT_FLOAT", "tensorShape": {"dim": [{"size": "1"}, {"size": "1"}, {"size": "1"}, {"size": "192"}]}}}}}, {"name": "StatefulPartitionedCall/functional_1/conv2_block5_1_conv_1/convolution/merged_input", "op": "Const", "attr": {"dtype": {"type": "DT_FLOAT"}, "value": {"tensor": {"dtype": "DT_FLOAT", "tensorShape": {"dim": [{"size": "1"}, {"size": "1"}, {"size": "192"}, {"size": "128"}]}}}}}, {"name": "StatefulPartitionedCall/functional_1/conv2_block5_1_bn_1/batchnorm/sub", "op": "Const", "attr": {"dtype": {"type": "DT_FLOAT"}, "value": {"tensor": {"dtype": "DT_FLOAT", "tensorShape": {"dim": [{"size": "1"}, {"size": "1"}, {"size": "1"}, {"size": "128"}]}}}}}, {"name": "StatefulPartitionedCall/functional_1/conv2_block5_2_conv_1/convolution/ReadVariableOp", "op": "Const", "attr": {"dtype": {"type": "DT_FLOAT"}, "value": {"tensor": {"dtype": "DT_FLOAT", "tensorShape": {"dim": [{"size": "3"}, {"size": "3"}, {"size": "128"}, {"size": "32"}]}}}}}, {"name": "StatefulPartitionedCall/functional_1/conv2_block5_concat_1/concat/axis", "op": "Const", "attr": {"dtype": {"type": "DT_INT32"}, "value": {"tensor": {"dtype": "DT_INT32", "tensorShape": {}}}}}, {"name": "StatefulPartitionedCall/functional_1/conv2_block6_0_bn_1/batchnorm/mul", "op": "Const", "attr": {"dtype": {"type": "DT_FLOAT"}, "value": {"tensor": {"dtype": "DT_FLOAT", "tensorShape": {"dim": [{"size": "1"}, {"size": "1"}, {"size": "1"}, {"size": "224"}]}}}}}, {"name": "StatefulPartitionedCall/functional_1/conv2_block6_0_bn_1/batchnorm/sub", "op": "Const", "attr": {"dtype": {"type": "DT_FLOAT"}, "value": {"tensor": {"dtype": "DT_FLOAT", "tensorShape": {"dim": [{"size": "1"}, {"size": "1"}, {"size": "1"}, {"size": "224"}]}}}}}, {"name": "StatefulPartitionedCall/functional_1/conv2_block6_1_conv_1/convolution/merged_input", "op": "Const", "attr": {"dtype": {"type": "DT_FLOAT"}, "value": {"tensor": {"dtype": "DT_FLOAT", "tensorShape": {"dim": [{"size": "1"}, {"size": "1"}, {"size": "224"}, {"size": "128"}]}}}}}, {"name": "StatefulPartitionedCall/functional_1/conv2_block6_1_bn_1/batchnorm/sub", "op": "Const", "attr": {"dtype": {"type": "DT_FLOAT"}, "value": {"tensor": {"dtype": "DT_FLOAT", "tensorShape": {"dim": [{"size": "1"}, {"size": "1"}, {"size": "1"}, {"size": "128"}]}}}}}, {"name": "StatefulPartitionedCall/functional_1/conv2_block6_2_conv_1/convolution/ReadVariableOp", "op": "Const", "attr": {"dtype": {"type": "DT_FLOAT"}, "value": {"tensor": {"dtype": "DT_FLOAT", "tensorShape": {"dim": [{"size": "3"}, {"size": "3"}, {"size": "128"}, {"size": "32"}]}}}}}, {"name": "StatefulPartitionedCall/functional_1/conv2_block6_concat_1/concat/axis", "op": "Const", "attr": {"dtype": {"type": "DT_INT32"}, "value": {"tensor": {"dtype": "DT_INT32", "tensorShape": {}}}}}, {"name": "StatefulPartitionedCall/functional_1/pool2_bn_1/batchnorm/mul", "op": "Const", "attr": {"dtype": {"type": "DT_FLOAT"}, "value": {"tensor": {"dtype": "DT_FLOAT", "tensorShape": {"dim": [{"size": "1"}, {"size": "1"}, {"size": "1"}, {"size": "256"}]}}}}}, {"name": "StatefulPartitionedCall/functional_1/pool2_bn_1/batchnorm/sub", "op": "Const", "attr": {"dtype": {"type": "DT_FLOAT"}, "value": {"tensor": {"dtype": "DT_FLOAT", "tensorShape": {"dim": [{"size": "1"}, {"size": "1"}, {"size": "1"}, {"size": "256"}]}}}}}, {"name": "StatefulPartitionedCall/functional_1/pool2_conv_1/convolution/ReadVariableOp", "op": "Const", "attr": {"dtype": {"type": "DT_FLOAT"}, "value": {"tensor": {"dtype": "DT_FLOAT", "tensorShape": {"dim": [{"size": "1"}, {"size": "1"}, {"size": "256"}, {"size": "128"}]}}}}}, {"name": "StatefulPartitionedCall/functional_1/conv3_block1_0_bn_1/batchnorm/mul", "op": "Const", "attr": {"dtype": {"type": "DT_FLOAT"}, "value": {"tensor": {"dtype": "DT_FLOAT", "tensorShape": {"dim": [{"size": "1"}, {"size": "1"}, {"size": "1"}, {"size": "128"}]}}}}}, {"name": "StatefulPartitionedCall/functional_1/conv3_block1_0_bn_1/batchnorm/sub", "op": "Const", "attr": {"dtype": {"type": "DT_FLOAT"}, "value": {"tensor": {"dtype": "DT_FLOAT", "tensorShape": {"dim": [{"size": "1"}, {"size": "1"}, {"size": "1"}, {"size": "128"}]}}}}}, {"name": "StatefulPartitionedCall/functional_1/conv3_block1_1_conv_1/convolution/merged_input", "op": "Const", "attr": {"dtype": {"type": "DT_FLOAT"}, "value": {"tensor": {"dtype": "DT_FLOAT", "tensorShape": {"dim": [{"size": "1"}, {"size": "1"}, {"size": "128"}, {"size": "128"}]}}}}}, {"name": "StatefulPartitionedCall/functional_1/conv3_block1_1_bn_1/batchnorm/sub", "op": "Const", "attr": {"dtype": {"type": "DT_FLOAT"}, "value": {"tensor": {"dtype": "DT_FLOAT", "tensorShape": {"dim": [{"size": "1"}, {"size": "1"}, {"size": "1"}, {"size": "128"}]}}}}}, {"name": "StatefulPartitionedCall/functional_1/conv3_block1_2_conv_1/convolution/ReadVariableOp", "op": "Const", "attr": {"dtype": {"type": "DT_FLOAT"}, "value": {"tensor": {"dtype": "DT_FLOAT", "tensorShape": {"dim": [{"size": "3"}, {"size": "3"}, {"size": "128"}, {"size": "32"}]}}}}}, {"name": "StatefulPartitionedCall/functional_1/conv3_block1_concat_1/concat/axis", "op": "Const", "attr": {"dtype": {"type": "DT_INT32"}, "value": {"tensor": {"dtype": "DT_INT32", "tensorShape": {}}}}}, {"name": "StatefulPartitionedCall/functional_1/conv3_block2_0_bn_1/batchnorm/mul", "op": "Const", "attr": {"dtype": {"type": "DT_FLOAT"}, "value": {"tensor": {"dtype": "DT_FLOAT", "tensorShape": {"dim": [{"size": "1"}, {"size": "1"}, {"size": "1"}, {"size": "160"}]}}}}}, {"name": "StatefulPartitionedCall/functional_1/conv3_block2_0_bn_1/batchnorm/sub", "op": "Const", "attr": {"dtype": {"type": "DT_FLOAT"}, "value": {"tensor": {"dtype": "DT_FLOAT", "tensorShape": {"dim": [{"size": "1"}, {"size": "1"}, {"size": "1"}, {"size": "160"}]}}}}}, {"name": "StatefulPartitionedCall/functional_1/conv3_block2_1_conv_1/convolution/merged_input", "op": "Const", "attr": {"dtype": {"type": "DT_FLOAT"}, "value": {"tensor": {"dtype": "DT_FLOAT", "tensorShape": {"dim": [{"size": "1"}, {"size": "1"}, {"size": "160"}, {"size": "128"}]}}}}}, {"name": "StatefulPartitionedCall/functional_1/conv3_block2_1_bn_1/batchnorm/sub", "op": "Const", "attr": {"dtype": {"type": "DT_FLOAT"}, "value": {"tensor": {"dtype": "DT_FLOAT", "tensorShape": {"dim": [{"size": "1"}, {"size": "1"}, {"size": "1"}, {"size": "128"}]}}}}}, {"name": "StatefulPartitionedCall/functional_1/conv3_block2_2_conv_1/convolution/ReadVariableOp", "op": "Const", "attr": {"dtype": {"type": "DT_FLOAT"}, "value": {"tensor": {"dtype": "DT_FLOAT", "tensorShape": {"dim": [{"size": "3"}, {"size": "3"}, {"size": "128"}, {"size": "32"}]}}}}}, {"name": "StatefulPartitionedCall/functional_1/conv3_block2_concat_1/concat/axis", "op": "Const", "attr": {"dtype": {"type": "DT_INT32"}, "value": {"tensor": {"dtype": "DT_INT32", "tensorShape": {}}}}}, {"name": "StatefulPartitionedCall/functional_1/conv3_block3_0_bn_1/batchnorm/mul", "op": "Const", "attr": {"dtype": {"type": "DT_FLOAT"}, "value": {"tensor": {"dtype": "DT_FLOAT", "tensorShape": {"dim": [{"size": "1"}, {"size": "1"}, {"size": "1"}, {"size": "192"}]}}}}}, {"name": "StatefulPartitionedCall/functional_1/conv3_block3_0_bn_1/batchnorm/sub", "op": "Const", "attr": {"dtype": {"type": "DT_FLOAT"}, "value": {"tensor": {"dtype": "DT_FLOAT", "tensorShape": {"dim": [{"size": "1"}, {"size": "1"}, {"size": "1"}, {"size": "192"}]}}}}}, {"name": "StatefulPartitionedCall/functional_1/conv3_block3_1_conv_1/convolution/merged_input", "op": "Const", "attr": {"dtype": {"type": "DT_FLOAT"}, "value": {"tensor": {"dtype": "DT_FLOAT", "tensorShape": {"dim": [{"size": "1"}, {"size": "1"}, {"size": "192"}, {"size": "128"}]}}}}}, {"name": "StatefulPartitionedCall/functional_1/conv3_block3_1_bn_1/batchnorm/sub", "op": "Const", "attr": {"dtype": {"type": "DT_FLOAT"}, "value": {"tensor": {"dtype": "DT_FLOAT", "tensorShape": {"dim": [{"size": "1"}, {"size": "1"}, {"size": "1"}, {"size": "128"}]}}}}}, {"name": "StatefulPartitionedCall/functional_1/conv3_block3_2_conv_1/convolution/ReadVariableOp", "op": "Const", "attr": {"dtype": {"type": "DT_FLOAT"}, "value": {"tensor": {"dtype": "DT_FLOAT", "tensorShape": {"dim": [{"size": "3"}, {"size": "3"}, {"size": "128"}, {"size": "32"}]}}}}}, {"name": "StatefulPartitionedCall/functional_1/conv3_block3_concat_1/concat/axis", "op": "Const", "attr": {"dtype": {"type": "DT_INT32"}, "value": {"tensor": {"dtype": "DT_INT32", "tensorShape": {}}}}}, {"name": "StatefulPartitionedCall/functional_1/conv3_block4_0_bn_1/batchnorm/mul", "op": "Const", "attr": {"dtype": {"type": "DT_FLOAT"}, "value": {"tensor": {"dtype": "DT_FLOAT", "tensorShape": {"dim": [{"size": "1"}, {"size": "1"}, {"size": "1"}, {"size": "224"}]}}}}}, {"name": "StatefulPartitionedCall/functional_1/conv3_block4_0_bn_1/batchnorm/sub", "op": "Const", "attr": {"dtype": {"type": "DT_FLOAT"}, "value": {"tensor": {"dtype": "DT_FLOAT", "tensorShape": {"dim": [{"size": "1"}, {"size": "1"}, {"size": "1"}, {"size": "224"}]}}}}}, {"name": "StatefulPartitionedCall/functional_1/conv3_block4_1_conv_1/convolution/merged_input", "op": "Const", "attr": {"dtype": {"type": "DT_FLOAT"}, "value": {"tensor": {"dtype": "DT_FLOAT", "tensorShape": {"dim": [{"size": "1"}, {"size": "1"}, {"size": "224"}, {"size": "128"}]}}}}}, {"name": "StatefulPartitionedCall/functional_1/conv3_block4_1_bn_1/batchnorm/sub", "op": "Const", "attr": {"dtype": {"type": "DT_FLOAT"}, "value": {"tensor": {"dtype": "DT_FLOAT", "tensorShape": {"dim": [{"size": "1"}, {"size": "1"}, {"size": "1"}, {"size": "128"}]}}}}}, {"name": "StatefulPartitionedCall/functional_1/conv3_block4_2_conv_1/convolution/ReadVariableOp", "op": "Const", "attr": {"dtype": {"type": "DT_FLOAT"}, "value": {"tensor": {"dtype": "DT_FLOAT", "tensorShape": {"dim": [{"size": "3"}, {"size": "3"}, {"size": "128"}, {"size": "32"}]}}}}}, {"name": "StatefulPartitionedCall/functional_1/conv3_block4_concat_1/concat/axis", "op": "Const", "attr": {"dtype": {"type": "DT_INT32"}, "value": {"tensor": {"dtype": "DT_INT32", "tensorShape": {}}}}}, {"name": "StatefulPartitionedCall/functional_1/conv3_block5_0_bn_1/batchnorm/mul", "op": "Const", "attr": {"dtype": {"type": "DT_FLOAT"}, "value": {"tensor": {"dtype": "DT_FLOAT", "tensorShape": {"dim": [{"size": "1"}, {"size": "1"}, {"size": "1"}, {"size": "256"}]}}}}}, {"name": "StatefulPartitionedCall/functional_1/conv3_block5_0_bn_1/batchnorm/sub", "op": "Const", "attr": {"dtype": {"type": "DT_FLOAT"}, "value": {"tensor": {"dtype": "DT_FLOAT", "tensorShape": {"dim": [{"size": "1"}, {"size": "1"}, {"size": "1"}, {"size": "256"}]}}}}}, {"name": "StatefulPartitionedCall/functional_1/conv3_block5_1_conv_1/convolution/merged_input", "op": "Const", "attr": {"dtype": {"type": "DT_FLOAT"}, "value": {"tensor": {"dtype": "DT_FLOAT", "tensorShape": {"dim": [{"size": "1"}, {"size": "1"}, {"size": "256"}, {"size": "128"}]}}}}}, {"name": "StatefulPartitionedCall/functional_1/conv3_block5_1_bn_1/batchnorm/sub", "op": "Const", "attr": {"dtype": {"type": "DT_FLOAT"}, "value": {"tensor": {"dtype": "DT_FLOAT", "tensorShape": {"dim": [{"size": "1"}, {"size": "1"}, {"size": "1"}, {"size": "128"}]}}}}}, {"name": "StatefulPartitionedCall/functional_1/conv3_block5_2_conv_1/convolution/ReadVariableOp", "op": "Const", "attr": {"dtype": {"type": "DT_FLOAT"}, "value": {"tensor": {"dtype": "DT_FLOAT", "tensorShape": {"dim": [{"size": "3"}, {"size": "3"}, {"size": "128"}, {"size": "32"}]}}}}}, {"name": "StatefulPartitionedCall/functional_1/conv3_block5_concat_1/concat/axis", "op": "Const", "attr": {"dtype": {"type": "DT_INT32"}, "value": {"tensor": {"dtype": "DT_INT32", "tensorShape": {}}}}}, {"name": "StatefulPartitionedCall/functional_1/conv3_block6_0_bn_1/batchnorm/mul", "op": "Const", "attr": {"dtype": {"type": "DT_FLOAT"}, "value": {"tensor": {"dtype": "DT_FLOAT", "tensorShape": {"dim": [{"size": "1"}, {"size": "1"}, {"size": "1"}, {"size": "288"}]}}}}}, {"name": "StatefulPartitionedCall/functional_1/conv3_block6_0_bn_1/batchnorm/sub", "op": "Const", "attr": {"dtype": {"type": "DT_FLOAT"}, "value": {"tensor": {"dtype": "DT_FLOAT", "tensorShape": {"dim": [{"size": "1"}, {"size": "1"}, {"size": "1"}, {"size": "288"}]}}}}}, {"name": "StatefulPartitionedCall/functional_1/conv3_block6_1_conv_1/convolution/merged_input", "op": "Const", "attr": {"dtype": {"type": "DT_FLOAT"}, "value": {"tensor": {"dtype": "DT_FLOAT", "tensorShape": {"dim": [{"size": "1"}, {"size": "1"}, {"size": "288"}, {"size": "128"}]}}}}}, {"name": "StatefulPartitionedCall/functional_1/conv3_block6_1_bn_1/batchnorm/sub", "op": "Const", "attr": {"dtype": {"type": "DT_FLOAT"}, "value": {"tensor": {"dtype": "DT_FLOAT", "tensorShape": {"dim": [{"size": "1"}, {"size": "1"}, {"size": "1"}, {"size": "128"}]}}}}}, {"name": "StatefulPartitionedCall/functional_1/conv3_block6_2_conv_1/convolution/ReadVariableOp", "op": "Const", "attr": {"dtype": {"type": "DT_FLOAT"}, "value": {"tensor": {"dtype": "DT_FLOAT", "tensorShape": {"dim": [{"size": "3"}, {"size": "3"}, {"size": "128"}, {"size": "32"}]}}}}}, {"name": "StatefulPartitionedCall/functional_1/conv3_block6_concat_1/concat/axis", "op": "Const", "attr": {"dtype": {"type": "DT_INT32"}, "value": {"tensor": {"dtype": "DT_INT32", "tensorShape": {}}}}}, {"name": "StatefulPartitionedCall/functional_1/conv3_block7_0_bn_1/batchnorm/mul", "op": "Const", "attr": {"dtype": {"type": "DT_FLOAT"}, "value": {"tensor": {"dtype": "DT_FLOAT", "tensorShape": {"dim": [{"size": "1"}, {"size": "1"}, {"size": "1"}, {"size": "320"}]}}}}}, {"name": "StatefulPartitionedCall/functional_1/conv3_block7_0_bn_1/batchnorm/sub", "op": "Const", "attr": {"dtype": {"type": "DT_FLOAT"}, "value": {"tensor": {"dtype": "DT_FLOAT", "tensorShape": {"dim": [{"size": "1"}, {"size": "1"}, {"size": "1"}, {"size": "320"}]}}}}}, {"name": "StatefulPartitionedCall/functional_1/conv3_block7_1_conv_1/convolution/merged_input", "op": "Const", "attr": {"dtype": {"type": "DT_FLOAT"}, "value": {"tensor": {"dtype": "DT_FLOAT", "tensorShape": {"dim": [{"size": "1"}, {"size": "1"}, {"size": "320"}, {"size": "128"}]}}}}}, {"name": "StatefulPartitionedCall/functional_1/conv3_block7_1_bn_1/batchnorm/sub", "op": "Const", "attr": {"dtype": {"type": "DT_FLOAT"}, "value": {"tensor": {"dtype": "DT_FLOAT", "tensorShape": {"dim": [{"size": "1"}, {"size": "1"}, {"size": "1"}, {"size": "128"}]}}}}}, {"name": "StatefulPartitionedCall/functional_1/conv3_block7_2_conv_1/convolution/ReadVariableOp", "op": "Const", "attr": {"dtype": {"type": "DT_FLOAT"}, "value": {"tensor": {"dtype": "DT_FLOAT", "tensorShape": {"dim": [{"size": "3"}, {"size": "3"}, {"size": "128"}, {"size": "32"}]}}}}}, {"name": "StatefulPartitionedCall/functional_1/conv3_block7_concat_1/concat/axis", "op": "Const", "attr": {"dtype": {"type": "DT_INT32"}, "value": {"tensor": {"dtype": "DT_INT32", "tensorShape": {}}}}}, {"name": "StatefulPartitionedCall/functional_1/conv3_block8_0_bn_1/batchnorm/mul", "op": "Const", "attr": {"dtype": {"type": "DT_FLOAT"}, "value": {"tensor": {"dtype": "DT_FLOAT", "tensorShape": {"dim": [{"size": "1"}, {"size": "1"}, {"size": "1"}, {"size": "352"}]}}}}}, {"name": "StatefulPartitionedCall/functional_1/conv3_block8_0_bn_1/batchnorm/sub", "op": "Const", "attr": {"dtype": {"type": "DT_FLOAT"}, "value": {"tensor": {"dtype": "DT_FLOAT", "tensorShape": {"dim": [{"size": "1"}, {"size": "1"}, {"size": "1"}, {"size": "352"}]}}}}}, {"name": "StatefulPartitionedCall/functional_1/conv3_block8_1_conv_1/convolution/merged_input", "op": "Const", "attr": {"dtype": {"type": "DT_FLOAT"}, "value": {"tensor": {"dtype": "DT_FLOAT", "tensorShape": {"dim": [{"size": "1"}, {"size": "1"}, {"size": "352"}, {"size": "128"}]}}}}}, {"name": "StatefulPartitionedCall/functional_1/conv3_block8_1_bn_1/batchnorm/sub", "op": "Const", "attr": {"dtype": {"type": "DT_FLOAT"}, "value": {"tensor": {"dtype": "DT_FLOAT", "tensorShape": {"dim": [{"size": "1"}, {"size": "1"}, {"size": "1"}, {"size": "128"}]}}}}}, {"name": "StatefulPartitionedCall/functional_1/conv3_block8_2_conv_1/convolution/ReadVariableOp", "op": "Const", "attr": {"dtype": {"type": "DT_FLOAT"}, "value": {"tensor": {"dtype": "DT_FLOAT", "tensorShape": {"dim": [{"size": "3"}, {"size": "3"}, {"size": "128"}, {"size": "32"}]}}}}}, {"name": "StatefulPartitionedCall/functional_1/conv3_block8_concat_1/concat/axis", "op": "Const", "attr": {"dtype": {"type": "DT_INT32"}, "value": {"tensor": {"dtype": "DT_INT32", "tensorShape": {}}}}}, {"name": "StatefulPartitionedCall/functional_1/conv3_block9_0_bn_1/batchnorm/mul", "op": "Const", "attr": {"dtype": {"type": "DT_FLOAT"}, "value": {"tensor": {"dtype": "DT_FLOAT", "tensorShape": {"dim": [{"size": "1"}, {"size": "1"}, {"size": "1"}, {"size": "384"}]}}}}}, {"name": "StatefulPartitionedCall/functional_1/conv3_block9_0_bn_1/batchnorm/sub", "op": "Const", "attr": {"dtype": {"type": "DT_FLOAT"}, "value": {"tensor": {"dtype": "DT_FLOAT", "tensorShape": {"dim": [{"size": "1"}, {"size": "1"}, {"size": "1"}, {"size": "384"}]}}}}}, {"name": "StatefulPartitionedCall/functional_1/conv3_block9_1_conv_1/convolution/merged_input", "op": "Const", "attr": {"dtype": {"type": "DT_FLOAT"}, "value": {"tensor": {"dtype": "DT_FLOAT", "tensorShape": {"dim": [{"size": "1"}, {"size": "1"}, {"size": "384"}, {"size": "128"}]}}}}}, {"name": "StatefulPartitionedCall/functional_1/conv3_block9_1_bn_1/batchnorm/sub", "op": "Const", "attr": {"dtype": {"type": "DT_FLOAT"}, "value": {"tensor": {"dtype": "DT_FLOAT", "tensorShape": {"dim": [{"size": "1"}, {"size": "1"}, {"size": "1"}, {"size": "128"}]}}}}}, {"name": "StatefulPartitionedCall/functional_1/conv3_block9_2_conv_1/convolution/ReadVariableOp", "op": "Const", "attr": {"dtype": {"type": "DT_FLOAT"}, "value": {"tensor": {"dtype": "DT_FLOAT", "tensorShape": {"dim": [{"size": "3"}, {"size": "3"}, {"size": "128"}, {"size": "32"}]}}}}}, {"name": "StatefulPartitionedCall/functional_1/conv3_block9_concat_1/concat/axis", "op": "Const", "attr": {"dtype": {"type": "DT_INT32"}, "value": {"tensor": {"dtype": "DT_INT32", "tensorShape": {}}}}}, {"name": "StatefulPartitionedCall/functional_1/conv3_block10_0_bn_1/batchnorm/mul", "op": "Const", "attr": {"dtype": {"type": "DT_FLOAT"}, "value": {"tensor": {"dtype": "DT_FLOAT", "tensorShape": {"dim": [{"size": "1"}, {"size": "1"}, {"size": "1"}, {"size": "416"}]}}}}}, {"name": "StatefulPartitionedCall/functional_1/conv3_block10_0_bn_1/batchnorm/sub", "op": "Const", "attr": {"dtype": {"type": "DT_FLOAT"}, "value": {"tensor": {"dtype": "DT_FLOAT", "tensorShape": {"dim": [{"size": "1"}, {"size": "1"}, {"size": "1"}, {"size": "416"}]}}}}}, {"name": "StatefulPartitionedCall/functional_1/conv3_block10_1_conv_1/convolution/merged_input", "op": "Const", "attr": {"dtype": {"type": "DT_FLOAT"}, "value": {"tensor": {"dtype": "DT_FLOAT", "tensorShape": {"dim": [{"size": "1"}, {"size": "1"}, {"size": "416"}, {"size": "128"}]}}}}}, {"name": "StatefulPartitionedCall/functional_1/conv3_block10_1_bn_1/batchnorm/sub", "op": "Const", "attr": {"dtype": {"type": "DT_FLOAT"}, "value": {"tensor": {"dtype": "DT_FLOAT", "tensorShape": {"dim": [{"size": "1"}, {"size": "1"}, {"size": "1"}, {"size": "128"}]}}}}}, {"name": "StatefulPartitionedCall/functional_1/conv3_block10_2_conv_1/convolution/ReadVariableOp", "op": "Const", "attr": {"dtype": {"type": "DT_FLOAT"}, "value": {"tensor": {"dtype": "DT_FLOAT", "tensorShape": {"dim": [{"size": "3"}, {"size": "3"}, {"size": "128"}, {"size": "32"}]}}}}}, {"name": "StatefulPartitionedCall/functional_1/conv3_block10_concat_1/concat/axis", "op": "Const", "attr": {"dtype": {"type": "DT_INT32"}, "value": {"tensor": {"dtype": "DT_INT32", "tensorShape": {}}}}}, {"name": "StatefulPartitionedCall/functional_1/conv3_block11_0_bn_1/batchnorm/mul", "op": "Const", "attr": {"dtype": {"type": "DT_FLOAT"}, "value": {"tensor": {"dtype": "DT_FLOAT", "tensorShape": {"dim": [{"size": "1"}, {"size": "1"}, {"size": "1"}, {"size": "448"}]}}}}}, {"name": "StatefulPartitionedCall/functional_1/conv3_block11_0_bn_1/batchnorm/sub", "op": "Const", "attr": {"dtype": {"type": "DT_FLOAT"}, "value": {"tensor": {"dtype": "DT_FLOAT", "tensorShape": {"dim": [{"size": "1"}, {"size": "1"}, {"size": "1"}, {"size": "448"}]}}}}}, {"name": "StatefulPartitionedCall/functional_1/conv3_block11_1_conv_1/convolution/merged_input", "op": "Const", "attr": {"dtype": {"type": "DT_FLOAT"}, "value": {"tensor": {"dtype": "DT_FLOAT", "tensorShape": {"dim": [{"size": "1"}, {"size": "1"}, {"size": "448"}, {"size": "128"}]}}}}}, {"name": "StatefulPartitionedCall/functional_1/conv3_block11_1_bn_1/batchnorm/sub", "op": "Const", "attr": {"dtype": {"type": "DT_FLOAT"}, "value": {"tensor": {"dtype": "DT_FLOAT", "tensorShape": {"dim": [{"size": "1"}, {"size": "1"}, {"size": "1"}, {"size": "128"}]}}}}}, {"name": "StatefulPartitionedCall/functional_1/conv3_block11_2_conv_1/convolution/ReadVariableOp", "op": "Const", "attr": {"dtype": {"type": "DT_FLOAT"}, "value": {"tensor": {"dtype": "DT_FLOAT", "tensorShape": {"dim": [{"size": "3"}, {"size": "3"}, {"size": "128"}, {"size": "32"}]}}}}}, {"name": "StatefulPartitionedCall/functional_1/conv3_block11_concat_1/concat/axis", "op": "Const", "attr": {"dtype": {"type": "DT_INT32"}, "value": {"tensor": {"dtype": "DT_INT32", "tensorShape": {}}}}}, {"name": "StatefulPartitionedCall/functional_1/conv3_block12_0_bn_1/batchnorm/mul", "op": "Const", "attr": {"dtype": {"type": "DT_FLOAT"}, "value": {"tensor": {"dtype": "DT_FLOAT", "tensorShape": {"dim": [{"size": "1"}, {"size": "1"}, {"size": "1"}, {"size": "480"}]}}}}}, {"name": "StatefulPartitionedCall/functional_1/conv3_block12_0_bn_1/batchnorm/sub", "op": "Const", "attr": {"dtype": {"type": "DT_FLOAT"}, "value": {"tensor": {"dtype": "DT_FLOAT", "tensorShape": {"dim": [{"size": "1"}, {"size": "1"}, {"size": "1"}, {"size": "480"}]}}}}}, {"name": "StatefulPartitionedCall/functional_1/conv3_block12_1_conv_1/convolution/merged_input", "op": "Const", "attr": {"dtype": {"type": "DT_FLOAT"}, "value": {"tensor": {"dtype": "DT_FLOAT", "tensorShape": {"dim": [{"size": "1"}, {"size": "1"}, {"size": "480"}, {"size": "128"}]}}}}}, {"name": "StatefulPartitionedCall/functional_1/conv3_block12_1_bn_1/batchnorm/sub", "op": "Const", "attr": {"dtype": {"type": "DT_FLOAT"}, "value": {"tensor": {"dtype": "DT_FLOAT", "tensorShape": {"dim": [{"size": "1"}, {"size": "1"}, {"size": "1"}, {"size": "128"}]}}}}}, {"name": "StatefulPartitionedCall/functional_1/conv3_block12_2_conv_1/convolution/ReadVariableOp", "op": "Const", "attr": {"dtype": {"type": "DT_FLOAT"}, "value": {"tensor": {"dtype": "DT_FLOAT", "tensorShape": {"dim": [{"size": "3"}, {"size": "3"}, {"size": "128"}, {"size": "32"}]}}}}}, {"name": "StatefulPartitionedCall/functional_1/conv3_block12_concat_1/concat/axis", "op": "Const", "attr": {"dtype": {"type": "DT_INT32"}, "value": {"tensor": {"dtype": "DT_INT32", "tensorShape": {}}}}}, {"name": "StatefulPartitionedCall/functional_1/pool3_bn_1/batchnorm/mul", "op": "Const", "attr": {"dtype": {"type": "DT_FLOAT"}, "value": {"tensor": {"dtype": "DT_FLOAT", "tensorShape": {"dim": [{"size": "1"}, {"size": "1"}, {"size": "1"}, {"size": "512"}]}}}}}, {"name": "StatefulPartitionedCall/functional_1/pool3_bn_1/batchnorm/sub", "op": "Const", "attr": {"dtype": {"type": "DT_FLOAT"}, "value": {"tensor": {"dtype": "DT_FLOAT", "tensorShape": {"dim": [{"size": "1"}, {"size": "1"}, {"size": "1"}, {"size": "512"}]}}}}}, {"name": "StatefulPartitionedCall/functional_1/pool3_conv_1/convolution/ReadVariableOp", "op": "Const", "attr": {"dtype": {"type": "DT_FLOAT"}, "value": {"tensor": {"dtype": "DT_FLOAT", "tensorShape": {"dim": [{"size": "1"}, {"size": "1"}, {"size": "512"}, {"size": "256"}]}}}}}, {"name": "StatefulPartitionedCall/functional_1/conv4_block1_0_bn_1/batchnorm/mul", "op": "Const", "attr": {"dtype": {"type": "DT_FLOAT"}, "value": {"tensor": {"dtype": "DT_FLOAT", "tensorShape": {"dim": [{"size": "1"}, {"size": "1"}, {"size": "1"}, {"size": "256"}]}}}}}, {"name": "StatefulPartitionedCall/functional_1/conv4_block1_0_bn_1/batchnorm/sub", "op": "Const", "attr": {"dtype": {"type": "DT_FLOAT"}, "value": {"tensor": {"dtype": "DT_FLOAT", "tensorShape": {"dim": [{"size": "1"}, {"size": "1"}, {"size": "1"}, {"size": "256"}]}}}}}, {"name": "StatefulPartitionedCall/functional_1/conv4_block1_1_conv_1/convolution/merged_input", "op": "Const", "attr": {"dtype": {"type": "DT_FLOAT"}, "value": {"tensor": {"dtype": "DT_FLOAT", "tensorShape": {"dim": [{"size": "1"}, {"size": "1"}, {"size": "256"}, {"size": "128"}]}}}}}, {"name": "StatefulPartitionedCall/functional_1/conv4_block1_1_bn_1/batchnorm/sub", "op": "Const", "attr": {"dtype": {"type": "DT_FLOAT"}, "value": {"tensor": {"dtype": "DT_FLOAT", "tensorShape": {"dim": [{"size": "1"}, {"size": "1"}, {"size": "1"}, {"size": "128"}]}}}}}, {"name": "StatefulPartitionedCall/functional_1/conv4_block1_2_conv_1/convolution/ReadVariableOp", "op": "Const", "attr": {"dtype": {"type": "DT_FLOAT"}, "value": {"tensor": {"dtype": "DT_FLOAT", "tensorShape": {"dim": [{"size": "3"}, {"size": "3"}, {"size": "128"}, {"size": "32"}]}}}}}, {"name": "StatefulPartitionedCall/functional_1/conv4_block1_concat_1/concat/axis", "op": "Const", "attr": {"dtype": {"type": "DT_INT32"}, "value": {"tensor": {"dtype": "DT_INT32", "tensorShape": {}}}}}, {"name": "StatefulPartitionedCall/functional_1/conv4_block2_0_bn_1/batchnorm/mul", "op": "Const", "attr": {"dtype": {"type": "DT_FLOAT"}, "value": {"tensor": {"dtype": "DT_FLOAT", "tensorShape": {"dim": [{"size": "1"}, {"size": "1"}, {"size": "1"}, {"size": "288"}]}}}}}, {"name": "StatefulPartitionedCall/functional_1/conv4_block2_0_bn_1/batchnorm/sub", "op": "Const", "attr": {"dtype": {"type": "DT_FLOAT"}, "value": {"tensor": {"dtype": "DT_FLOAT", "tensorShape": {"dim": [{"size": "1"}, {"size": "1"}, {"size": "1"}, {"size": "288"}]}}}}}, {"name": "StatefulPartitionedCall/functional_1/conv4_block2_1_conv_1/convolution/merged_input", "op": "Const", "attr": {"dtype": {"type": "DT_FLOAT"}, "value": {"tensor": {"dtype": "DT_FLOAT", "tensorShape": {"dim": [{"size": "1"}, {"size": "1"}, {"size": "288"}, {"size": "128"}]}}}}}, {"name": "StatefulPartitionedCall/functional_1/conv4_block2_1_bn_1/batchnorm/sub", "op": "Const", "attr": {"dtype": {"type": "DT_FLOAT"}, "value": {"tensor": {"dtype": "DT_FLOAT", "tensorShape": {"dim": [{"size": "1"}, {"size": "1"}, {"size": "1"}, {"size": "128"}]}}}}}, {"name": "StatefulPartitionedCall/functional_1/conv4_block2_2_conv_1/convolution/ReadVariableOp", "op": "Const", "attr": {"dtype": {"type": "DT_FLOAT"}, "value": {"tensor": {"dtype": "DT_FLOAT", "tensorShape": {"dim": [{"size": "3"}, {"size": "3"}, {"size": "128"}, {"size": "32"}]}}}}}, {"name": "StatefulPartitionedCall/functional_1/conv4_block2_concat_1/concat/axis", "op": "Const", "attr": {"dtype": {"type": "DT_INT32"}, "value": {"tensor": {"dtype": "DT_INT32", "tensorShape": {}}}}}, {"name": "StatefulPartitionedCall/functional_1/conv4_block3_0_bn_1/batchnorm/mul", "op": "Const", "attr": {"dtype": {"type": "DT_FLOAT"}, "value": {"tensor": {"dtype": "DT_FLOAT", "tensorShape": {"dim": [{"size": "1"}, {"size": "1"}, {"size": "1"}, {"size": "320"}]}}}}}, {"name": "StatefulPartitionedCall/functional_1/conv4_block3_0_bn_1/batchnorm/sub", "op": "Const", "attr": {"dtype": {"type": "DT_FLOAT"}, "value": {"tensor": {"dtype": "DT_FLOAT", "tensorShape": {"dim": [{"size": "1"}, {"size": "1"}, {"size": "1"}, {"size": "320"}]}}}}}, {"name": "StatefulPartitionedCall/functional_1/conv4_block3_1_conv_1/convolution/merged_input", "op": "Const", "attr": {"dtype": {"type": "DT_FLOAT"}, "value": {"tensor": {"dtype": "DT_FLOAT", "tensorShape": {"dim": [{"size": "1"}, {"size": "1"}, {"size": "320"}, {"size": "128"}]}}}}}, {"name": "StatefulPartitionedCall/functional_1/conv4_block3_1_bn_1/batchnorm/sub", "op": "Const", "attr": {"dtype": {"type": "DT_FLOAT"}, "value": {"tensor": {"dtype": "DT_FLOAT", "tensorShape": {"dim": [{"size": "1"}, {"size": "1"}, {"size": "1"}, {"size": "128"}]}}}}}, {"name": "StatefulPartitionedCall/functional_1/conv4_block3_2_conv_1/convolution/ReadVariableOp", "op": "Const", "attr": {"dtype": {"type": "DT_FLOAT"}, "value": {"tensor": {"dtype": "DT_FLOAT", "tensorShape": {"dim": [{"size": "3"}, {"size": "3"}, {"size": "128"}, {"size": "32"}]}}}}}, {"name": "StatefulPartitionedCall/functional_1/conv4_block3_concat_1/concat/axis", "op": "Const", "attr": {"dtype": {"type": "DT_INT32"}, "value": {"tensor": {"dtype": "DT_INT32", "tensorShape": {}}}}}, {"name": "StatefulPartitionedCall/functional_1/conv4_block4_0_bn_1/batchnorm/mul", "op": "Const", "attr": {"dtype": {"type": "DT_FLOAT"}, "value": {"tensor": {"dtype": "DT_FLOAT", "tensorShape": {"dim": [{"size": "1"}, {"size": "1"}, {"size": "1"}, {"size": "352"}]}}}}}, {"name": "StatefulPartitionedCall/functional_1/conv4_block4_0_bn_1/batchnorm/sub", "op": "Const", "attr": {"dtype": {"type": "DT_FLOAT"}, "value": {"tensor": {"dtype": "DT_FLOAT", "tensorShape": {"dim": [{"size": "1"}, {"size": "1"}, {"size": "1"}, {"size": "352"}]}}}}}, {"name": "StatefulPartitionedCall/functional_1/conv4_block4_1_conv_1/convolution/merged_input", "op": "Const", "attr": {"dtype": {"type": "DT_FLOAT"}, "value": {"tensor": {"dtype": "DT_FLOAT", "tensorShape": {"dim": [{"size": "1"}, {"size": "1"}, {"size": "352"}, {"size": "128"}]}}}}}, {"name": "StatefulPartitionedCall/functional_1/conv4_block4_1_bn_1/batchnorm/sub", "op": "Const", "attr": {"dtype": {"type": "DT_FLOAT"}, "value": {"tensor": {"dtype": "DT_FLOAT", "tensorShape": {"dim": [{"size": "1"}, {"size": "1"}, {"size": "1"}, {"size": "128"}]}}}}}, {"name": "StatefulPartitionedCall/functional_1/conv4_block4_2_conv_1/convolution/ReadVariableOp", "op": "Const", "attr": {"dtype": {"type": "DT_FLOAT"}, "value": {"tensor": {"dtype": "DT_FLOAT", "tensorShape": {"dim": [{"size": "3"}, {"size": "3"}, {"size": "128"}, {"size": "32"}]}}}}}, {"name": "StatefulPartitionedCall/functional_1/conv4_block4_concat_1/concat/axis", "op": "Const", "attr": {"dtype": {"type": "DT_INT32"}, "value": {"tensor": {"dtype": "DT_INT32", "tensorShape": {}}}}}, {"name": "StatefulPartitionedCall/functional_1/conv4_block5_0_bn_1/batchnorm/mul", "op": "Const", "attr": {"dtype": {"type": "DT_FLOAT"}, "value": {"tensor": {"dtype": "DT_FLOAT", "tensorShape": {"dim": [{"size": "1"}, {"size": "1"}, {"size": "1"}, {"size": "384"}]}}}}}, {"name": "StatefulPartitionedCall/functional_1/conv4_block5_0_bn_1/batchnorm/sub", "op": "Const", "attr": {"dtype": {"type": "DT_FLOAT"}, "value": {"tensor": {"dtype": "DT_FLOAT", "tensorShape": {"dim": [{"size": "1"}, {"size": "1"}, {"size": "1"}, {"size": "384"}]}}}}}, {"name": "StatefulPartitionedCall/functional_1/conv4_block5_1_conv_1/convolution/merged_input", "op": "Const", "attr": {"dtype": {"type": "DT_FLOAT"}, "value": {"tensor": {"dtype": "DT_FLOAT", "tensorShape": {"dim": [{"size": "1"}, {"size": "1"}, {"size": "384"}, {"size": "128"}]}}}}}, {"name": "StatefulPartitionedCall/functional_1/conv4_block5_1_bn_1/batchnorm/sub", "op": "Const", "attr": {"dtype": {"type": "DT_FLOAT"}, "value": {"tensor": {"dtype": "DT_FLOAT", "tensorShape": {"dim": [{"size": "1"}, {"size": "1"}, {"size": "1"}, {"size": "128"}]}}}}}, {"name": "StatefulPartitionedCall/functional_1/conv4_block5_2_conv_1/convolution/ReadVariableOp", "op": "Const", "attr": {"dtype": {"type": "DT_FLOAT"}, "value": {"tensor": {"dtype": "DT_FLOAT", "tensorShape": {"dim": [{"size": "3"}, {"size": "3"}, {"size": "128"}, {"size": "32"}]}}}}}, {"name": "StatefulPartitionedCall/functional_1/conv4_block5_concat_1/concat/axis", "op": "Const", "attr": {"dtype": {"type": "DT_INT32"}, "value": {"tensor": {"dtype": "DT_INT32", "tensorShape": {}}}}}, {"name": "StatefulPartitionedCall/functional_1/conv4_block6_0_bn_1/batchnorm/mul", "op": "Const", "attr": {"dtype": {"type": "DT_FLOAT"}, "value": {"tensor": {"dtype": "DT_FLOAT", "tensorShape": {"dim": [{"size": "1"}, {"size": "1"}, {"size": "1"}, {"size": "416"}]}}}}}, {"name": "StatefulPartitionedCall/functional_1/conv4_block6_0_bn_1/batchnorm/sub", "op": "Const", "attr": {"dtype": {"type": "DT_FLOAT"}, "value": {"tensor": {"dtype": "DT_FLOAT", "tensorShape": {"dim": [{"size": "1"}, {"size": "1"}, {"size": "1"}, {"size": "416"}]}}}}}, {"name": "StatefulPartitionedCall/functional_1/conv4_block6_1_conv_1/convolution/merged_input", "op": "Const", "attr": {"dtype": {"type": "DT_FLOAT"}, "value": {"tensor": {"dtype": "DT_FLOAT", "tensorShape": {"dim": [{"size": "1"}, {"size": "1"}, {"size": "416"}, {"size": "128"}]}}}}}, {"name": "StatefulPartitionedCall/functional_1/conv4_block6_1_bn_1/batchnorm/sub", "op": "Const", "attr": {"dtype": {"type": "DT_FLOAT"}, "value": {"tensor": {"dtype": "DT_FLOAT", "tensorShape": {"dim": [{"size": "1"}, {"size": "1"}, {"size": "1"}, {"size": "128"}]}}}}}, {"name": "StatefulPartitionedCall/functional_1/conv4_block6_2_conv_1/convolution/ReadVariableOp", "op": "Const", "attr": {"dtype": {"type": "DT_FLOAT"}, "value": {"tensor": {"dtype": "DT_FLOAT", "tensorShape": {"dim": [{"size": "3"}, {"size": "3"}, {"size": "128"}, {"size": "32"}]}}}}}, {"name": "StatefulPartitionedCall/functional_1/conv4_block6_concat_1/concat/axis", "op": "Const", "attr": {"dtype": {"type": "DT_INT32"}, "value": {"tensor": {"dtype": "DT_INT32", "tensorShape": {}}}}}, {"name": "StatefulPartitionedCall/functional_1/conv4_block7_0_bn_1/batchnorm/mul", "op": "Const", "attr": {"dtype": {"type": "DT_FLOAT"}, "value": {"tensor": {"dtype": "DT_FLOAT", "tensorShape": {"dim": [{"size": "1"}, {"size": "1"}, {"size": "1"}, {"size": "448"}]}}}}}, {"name": "StatefulPartitionedCall/functional_1/conv4_block7_0_bn_1/batchnorm/sub", "op": "Const", "attr": {"dtype": {"type": "DT_FLOAT"}, "value": {"tensor": {"dtype": "DT_FLOAT", "tensorShape": {"dim": [{"size": "1"}, {"size": "1"}, {"size": "1"}, {"size": "448"}]}}}}}, {"name": "StatefulPartitionedCall/functional_1/conv4_block7_1_conv_1/convolution/merged_input", "op": "Const", "attr": {"dtype": {"type": "DT_FLOAT"}, "value": {"tensor": {"dtype": "DT_FLOAT", "tensorShape": {"dim": [{"size": "1"}, {"size": "1"}, {"size": "448"}, {"size": "128"}]}}}}}, {"name": "StatefulPartitionedCall/functional_1/conv4_block7_1_bn_1/batchnorm/sub", "op": "Const", "attr": {"dtype": {"type": "DT_FLOAT"}, "value": {"tensor": {"dtype": "DT_FLOAT", "tensorShape": {"dim": [{"size": "1"}, {"size": "1"}, {"size": "1"}, {"size": "128"}]}}}}}, {"name": "StatefulPartitionedCall/functional_1/conv4_block7_2_conv_1/convolution/ReadVariableOp", "op": "Const", "attr": {"dtype": {"type": "DT_FLOAT"}, "value": {"tensor": {"dtype": "DT_FLOAT", "tensorShape": {"dim": [{"size": "3"}, {"size": "3"}, {"size": "128"}, {"size": "32"}]}}}}}, {"name": "StatefulPartitionedCall/functional_1/conv4_block7_concat_1/concat/axis", "op": "Const", "attr": {"dtype": {"type": "DT_INT32"}, "value": {"tensor": {"dtype": "DT_INT32", "tensorShape": {}}}}}, {"name": "StatefulPartitionedCall/functional_1/conv4_block8_0_bn_1/batchnorm/mul", "op": "Const", "attr": {"dtype": {"type": "DT_FLOAT"}, "value": {"tensor": {"dtype": "DT_FLOAT", "tensorShape": {"dim": [{"size": "1"}, {"size": "1"}, {"size": "1"}, {"size": "480"}]}}}}}, {"name": "StatefulPartitionedCall/functional_1/conv4_block8_0_bn_1/batchnorm/sub", "op": "Const", "attr": {"dtype": {"type": "DT_FLOAT"}, "value": {"tensor": {"dtype": "DT_FLOAT", "tensorShape": {"dim": [{"size": "1"}, {"size": "1"}, {"size": "1"}, {"size": "480"}]}}}}}, {"name": "StatefulPartitionedCall/functional_1/conv4_block8_1_conv_1/convolution/merged_input", "op": "Const", "attr": {"dtype": {"type": "DT_FLOAT"}, "value": {"tensor": {"dtype": "DT_FLOAT", "tensorShape": {"dim": [{"size": "1"}, {"size": "1"}, {"size": "480"}, {"size": "128"}]}}}}}, {"name": "StatefulPartitionedCall/functional_1/conv4_block8_1_bn_1/batchnorm/sub", "op": "Const", "attr": {"dtype": {"type": "DT_FLOAT"}, "value": {"tensor": {"dtype": "DT_FLOAT", "tensorShape": {"dim": [{"size": "1"}, {"size": "1"}, {"size": "1"}, {"size": "128"}]}}}}}, {"name": "StatefulPartitionedCall/functional_1/conv4_block8_2_conv_1/convolution/ReadVariableOp", "op": "Const", "attr": {"dtype": {"type": "DT_FLOAT"}, "value": {"tensor": {"dtype": "DT_FLOAT", "tensorShape": {"dim": [{"size": "3"}, {"size": "3"}, {"size": "128"}, {"size": "32"}]}}}}}, {"name": "StatefulPartitionedCall/functional_1/conv4_block8_concat_1/concat/axis", "op": "Const", "attr": {"dtype": {"type": "DT_INT32"}, "value": {"tensor": {"dtype": "DT_INT32", "tensorShape": {}}}}}, {"name": "StatefulPartitionedCall/functional_1/conv4_block9_0_bn_1/batchnorm/mul", "op": "Const", "attr": {"dtype": {"type": "DT_FLOAT"}, "value": {"tensor": {"dtype": "DT_FLOAT", "tensorShape": {"dim": [{"size": "1"}, {"size": "1"}, {"size": "1"}, {"size": "512"}]}}}}}, {"name": "StatefulPartitionedCall/functional_1/conv4_block9_0_bn_1/batchnorm/sub", "op": "Const", "attr": {"dtype": {"type": "DT_FLOAT"}, "value": {"tensor": {"dtype": "DT_FLOAT", "tensorShape": {"dim": [{"size": "1"}, {"size": "1"}, {"size": "1"}, {"size": "512"}]}}}}}, {"name": "StatefulPartitionedCall/functional_1/conv4_block9_1_conv_1/convolution/merged_input", "op": "Const", "attr": {"dtype": {"type": "DT_FLOAT"}, "value": {"tensor": {"dtype": "DT_FLOAT", "tensorShape": {"dim": [{"size": "1"}, {"size": "1"}, {"size": "512"}, {"size": "128"}]}}}}}, {"name": "StatefulPartitionedCall/functional_1/conv4_block9_1_bn_1/batchnorm/sub", "op": "Const", "attr": {"dtype": {"type": "DT_FLOAT"}, "value": {"tensor": {"dtype": "DT_FLOAT", "tensorShape": {"dim": [{"size": "1"}, {"size": "1"}, {"size": "1"}, {"size": "128"}]}}}}}, {"name": "StatefulPartitionedCall/functional_1/conv4_block9_2_conv_1/convolution/ReadVariableOp", "op": "Const", "attr": {"dtype": {"type": "DT_FLOAT"}, "value": {"tensor": {"dtype": "DT_FLOAT", "tensorShape": {"dim": [{"size": "3"}, {"size": "3"}, {"size": "128"}, {"size": "32"}]}}}}}, {"name": "StatefulPartitionedCall/functional_1/conv4_block9_concat_1/concat/axis", "op": "Const", "attr": {"dtype": {"type": "DT_INT32"}, "value": {"tensor": {"dtype": "DT_INT32", "tensorShape": {}}}}}, {"name": "StatefulPartitionedCall/functional_1/conv4_block10_0_bn_1/batchnorm/mul", "op": "Const", "attr": {"dtype": {"type": "DT_FLOAT"}, "value": {"tensor": {"dtype": "DT_FLOAT", "tensorShape": {"dim": [{"size": "1"}, {"size": "1"}, {"size": "1"}, {"size": "544"}]}}}}}, {"name": "StatefulPartitionedCall/functional_1/conv4_block10_0_bn_1/batchnorm/sub", "op": "Const", "attr": {"dtype": {"type": "DT_FLOAT"}, "value": {"tensor": {"dtype": "DT_FLOAT", "tensorShape": {"dim": [{"size": "1"}, {"size": "1"}, {"size": "1"}, {"size": "544"}]}}}}}, {"name": "StatefulPartitionedCall/functional_1/conv4_block10_1_conv_1/convolution/merged_input", "op": "Const", "attr": {"dtype": {"type": "DT_FLOAT"}, "value": {"tensor": {"dtype": "DT_FLOAT", "tensorShape": {"dim": [{"size": "1"}, {"size": "1"}, {"size": "544"}, {"size": "128"}]}}}}}, {"name": "StatefulPartitionedCall/functional_1/conv4_block10_1_bn_1/batchnorm/sub", "op": "Const", "attr": {"dtype": {"type": "DT_FLOAT"}, "value": {"tensor": {"dtype": "DT_FLOAT", "tensorShape": {"dim": [{"size": "1"}, {"size": "1"}, {"size": "1"}, {"size": "128"}]}}}}}, {"name": "StatefulPartitionedCall/functional_1/conv4_block10_2_conv_1/convolution/ReadVariableOp", "op": "Const", "attr": {"dtype": {"type": "DT_FLOAT"}, "value": {"tensor": {"dtype": "DT_FLOAT", "tensorShape": {"dim": [{"size": "3"}, {"size": "3"}, {"size": "128"}, {"size": "32"}]}}}}}, {"name": "StatefulPartitionedCall/functional_1/conv4_block10_concat_1/concat/axis", "op": "Const", "attr": {"dtype": {"type": "DT_INT32"}, "value": {"tensor": {"dtype": "DT_INT32", "tensorShape": {}}}}}, {"name": "StatefulPartitionedCall/functional_1/conv4_block11_0_bn_1/batchnorm/mul", "op": "Const", "attr": {"dtype": {"type": "DT_FLOAT"}, "value": {"tensor": {"dtype": "DT_FLOAT", "tensorShape": {"dim": [{"size": "1"}, {"size": "1"}, {"size": "1"}, {"size": "576"}]}}}}}, {"name": "StatefulPartitionedCall/functional_1/conv4_block11_0_bn_1/batchnorm/sub", "op": "Const", "attr": {"dtype": {"type": "DT_FLOAT"}, "value": {"tensor": {"dtype": "DT_FLOAT", "tensorShape": {"dim": [{"size": "1"}, {"size": "1"}, {"size": "1"}, {"size": "576"}]}}}}}, {"name": "StatefulPartitionedCall/functional_1/conv4_block11_1_conv_1/convolution/merged_input", "op": "Const", "attr": {"dtype": {"type": "DT_FLOAT"}, "value": {"tensor": {"dtype": "DT_FLOAT", "tensorShape": {"dim": [{"size": "1"}, {"size": "1"}, {"size": "576"}, {"size": "128"}]}}}}}, {"name": "StatefulPartitionedCall/functional_1/conv4_block11_1_bn_1/batchnorm/sub", "op": "Const", "attr": {"dtype": {"type": "DT_FLOAT"}, "value": {"tensor": {"dtype": "DT_FLOAT", "tensorShape": {"dim": [{"size": "1"}, {"size": "1"}, {"size": "1"}, {"size": "128"}]}}}}}, {"name": "StatefulPartitionedCall/functional_1/conv4_block11_2_conv_1/convolution/ReadVariableOp", "op": "Const", "attr": {"dtype": {"type": "DT_FLOAT"}, "value": {"tensor": {"dtype": "DT_FLOAT", "tensorShape": {"dim": [{"size": "3"}, {"size": "3"}, {"size": "128"}, {"size": "32"}]}}}}}, {"name": "StatefulPartitionedCall/functional_1/conv4_block11_concat_1/concat/axis", "op": "Const", "attr": {"dtype": {"type": "DT_INT32"}, "value": {"tensor": {"dtype": "DT_INT32", "tensorShape": {}}}}}, {"name": "StatefulPartitionedCall/functional_1/conv4_block12_0_bn_1/batchnorm/mul", "op": "Const", "attr": {"dtype": {"type": "DT_FLOAT"}, "value": {"tensor": {"dtype": "DT_FLOAT", "tensorShape": {"dim": [{"size": "1"}, {"size": "1"}, {"size": "1"}, {"size": "608"}]}}}}}, {"name": "StatefulPartitionedCall/functional_1/conv4_block12_0_bn_1/batchnorm/sub", "op": "Const", "attr": {"dtype": {"type": "DT_FLOAT"}, "value": {"tensor": {"dtype": "DT_FLOAT", "tensorShape": {"dim": [{"size": "1"}, {"size": "1"}, {"size": "1"}, {"size": "608"}]}}}}}, {"name": "StatefulPartitionedCall/functional_1/conv4_block12_1_conv_1/convolution/merged_input", "op": "Const", "attr": {"dtype": {"type": "DT_FLOAT"}, "value": {"tensor": {"dtype": "DT_FLOAT", "tensorShape": {"dim": [{"size": "1"}, {"size": "1"}, {"size": "608"}, {"size": "128"}]}}}}}, {"name": "StatefulPartitionedCall/functional_1/conv4_block12_1_bn_1/batchnorm/sub", "op": "Const", "attr": {"dtype": {"type": "DT_FLOAT"}, "value": {"tensor": {"dtype": "DT_FLOAT", "tensorShape": {"dim": [{"size": "1"}, {"size": "1"}, {"size": "1"}, {"size": "128"}]}}}}}, {"name": "StatefulPartitionedCall/functional_1/conv4_block12_2_conv_1/convolution/ReadVariableOp", "op": "Const", "attr": {"dtype": {"type": "DT_FLOAT"}, "value": {"tensor": {"dtype": "DT_FLOAT", "tensorShape": {"dim": [{"size": "3"}, {"size": "3"}, {"size": "128"}, {"size": "32"}]}}}}}, {"name": "StatefulPartitionedCall/functional_1/conv4_block12_concat_1/concat/axis", "op": "Const", "attr": {"dtype": {"type": "DT_INT32"}, "value": {"tensor": {"dtype": "DT_INT32", "tensorShape": {}}}}}, {"name": "StatefulPartitionedCall/functional_1/conv4_block13_0_bn_1/batchnorm/mul", "op": "Const", "attr": {"dtype": {"type": "DT_FLOAT"}, "value": {"tensor": {"dtype": "DT_FLOAT", "tensorShape": {"dim": [{"size": "1"}, {"size": "1"}, {"size": "1"}, {"size": "640"}]}}}}}, {"name": "StatefulPartitionedCall/functional_1/conv4_block13_0_bn_1/batchnorm/sub", "op": "Const", "attr": {"dtype": {"type": "DT_FLOAT"}, "value": {"tensor": {"dtype": "DT_FLOAT", "tensorShape": {"dim": [{"size": "1"}, {"size": "1"}, {"size": "1"}, {"size": "640"}]}}}}}, {"name": "StatefulPartitionedCall/functional_1/conv4_block13_1_conv_1/convolution/merged_input", "op": "Const", "attr": {"dtype": {"type": "DT_FLOAT"}, "value": {"tensor": {"dtype": "DT_FLOAT", "tensorShape": {"dim": [{"size": "1"}, {"size": "1"}, {"size": "640"}, {"size": "128"}]}}}}}, {"name": "StatefulPartitionedCall/functional_1/conv4_block13_1_bn_1/batchnorm/sub", "op": "Const", "attr": {"dtype": {"type": "DT_FLOAT"}, "value": {"tensor": {"dtype": "DT_FLOAT", "tensorShape": {"dim": [{"size": "1"}, {"size": "1"}, {"size": "1"}, {"size": "128"}]}}}}}, {"name": "StatefulPartitionedCall/functional_1/conv4_block13_2_conv_1/convolution/ReadVariableOp", "op": "Const", "attr": {"dtype": {"type": "DT_FLOAT"}, "value": {"tensor": {"dtype": "DT_FLOAT", "tensorShape": {"dim": [{"size": "3"}, {"size": "3"}, {"size": "128"}, {"size": "32"}]}}}}}, {"name": "StatefulPartitionedCall/functional_1/conv4_block13_concat_1/concat/axis", "op": "Const", "attr": {"dtype": {"type": "DT_INT32"}, "value": {"tensor": {"dtype": "DT_INT32", "tensorShape": {}}}}}, {"name": "StatefulPartitionedCall/functional_1/conv4_block14_0_bn_1/batchnorm/mul", "op": "Const", "attr": {"dtype": {"type": "DT_FLOAT"}, "value": {"tensor": {"dtype": "DT_FLOAT", "tensorShape": {"dim": [{"size": "1"}, {"size": "1"}, {"size": "1"}, {"size": "672"}]}}}}}, {"name": "StatefulPartitionedCall/functional_1/conv4_block14_0_bn_1/batchnorm/sub", "op": "Const", "attr": {"dtype": {"type": "DT_FLOAT"}, "value": {"tensor": {"dtype": "DT_FLOAT", "tensorShape": {"dim": [{"size": "1"}, {"size": "1"}, {"size": "1"}, {"size": "672"}]}}}}}, {"name": "StatefulPartitionedCall/functional_1/conv4_block14_1_conv_1/convolution/merged_input", "op": "Const", "attr": {"dtype": {"type": "DT_FLOAT"}, "value": {"tensor": {"dtype": "DT_FLOAT", "tensorShape": {"dim": [{"size": "1"}, {"size": "1"}, {"size": "672"}, {"size": "128"}]}}}}}, {"name": "StatefulPartitionedCall/functional_1/conv4_block14_1_bn_1/batchnorm/sub", "op": "Const", "attr": {"dtype": {"type": "DT_FLOAT"}, "value": {"tensor": {"dtype": "DT_FLOAT", "tensorShape": {"dim": [{"size": "1"}, {"size": "1"}, {"size": "1"}, {"size": "128"}]}}}}}, {"name": "StatefulPartitionedCall/functional_1/conv4_block14_2_conv_1/convolution/ReadVariableOp", "op": "Const", "attr": {"dtype": {"type": "DT_FLOAT"}, "value": {"tensor": {"dtype": "DT_FLOAT", "tensorShape": {"dim": [{"size": "3"}, {"size": "3"}, {"size": "128"}, {"size": "32"}]}}}}}, {"name": "StatefulPartitionedCall/functional_1/conv4_block14_concat_1/concat/axis", "op": "Const", "attr": {"dtype": {"type": "DT_INT32"}, "value": {"tensor": {"dtype": "DT_INT32", "tensorShape": {}}}}}, {"name": "StatefulPartitionedCall/functional_1/conv4_block15_0_bn_1/batchnorm/mul", "op": "Const", "attr": {"dtype": {"type": "DT_FLOAT"}, "value": {"tensor": {"dtype": "DT_FLOAT", "tensorShape": {"dim": [{"size": "1"}, {"size": "1"}, {"size": "1"}, {"size": "704"}]}}}}}, {"name": "StatefulPartitionedCall/functional_1/conv4_block15_0_bn_1/batchnorm/sub", "op": "Const", "attr": {"dtype": {"type": "DT_FLOAT"}, "value": {"tensor": {"dtype": "DT_FLOAT", "tensorShape": {"dim": [{"size": "1"}, {"size": "1"}, {"size": "1"}, {"size": "704"}]}}}}}, {"name": "StatefulPartitionedCall/functional_1/conv4_block15_1_conv_1/convolution/merged_input", "op": "Const", "attr": {"dtype": {"type": "DT_FLOAT"}, "value": {"tensor": {"dtype": "DT_FLOAT", "tensorShape": {"dim": [{"size": "1"}, {"size": "1"}, {"size": "704"}, {"size": "128"}]}}}}}, {"name": "StatefulPartitionedCall/functional_1/conv4_block15_1_bn_1/batchnorm/sub", "op": "Const", "attr": {"dtype": {"type": "DT_FLOAT"}, "value": {"tensor": {"dtype": "DT_FLOAT", "tensorShape": {"dim": [{"size": "1"}, {"size": "1"}, {"size": "1"}, {"size": "128"}]}}}}}, {"name": "StatefulPartitionedCall/functional_1/conv4_block15_2_conv_1/convolution/ReadVariableOp", "op": "Const", "attr": {"dtype": {"type": "DT_FLOAT"}, "value": {"tensor": {"dtype": "DT_FLOAT", "tensorShape": {"dim": [{"size": "3"}, {"size": "3"}, {"size": "128"}, {"size": "32"}]}}}}}, {"name": "StatefulPartitionedCall/functional_1/conv4_block15_concat_1/concat/axis", "op": "Const", "attr": {"dtype": {"type": "DT_INT32"}, "value": {"tensor": {"dtype": "DT_INT32", "tensorShape": {}}}}}, {"name": "StatefulPartitionedCall/functional_1/conv4_block16_0_bn_1/batchnorm/mul", "op": "Const", "attr": {"dtype": {"type": "DT_FLOAT"}, "value": {"tensor": {"dtype": "DT_FLOAT", "tensorShape": {"dim": [{"size": "1"}, {"size": "1"}, {"size": "1"}, {"size": "736"}]}}}}}, {"name": "StatefulPartitionedCall/functional_1/conv4_block16_0_bn_1/batchnorm/sub", "op": "Const", "attr": {"dtype": {"type": "DT_FLOAT"}, "value": {"tensor": {"dtype": "DT_FLOAT", "tensorShape": {"dim": [{"size": "1"}, {"size": "1"}, {"size": "1"}, {"size": "736"}]}}}}}, {"name": "StatefulPartitionedCall/functional_1/conv4_block16_1_conv_1/convolution/merged_input", "op": "Const", "attr": {"dtype": {"type": "DT_FLOAT"}, "value": {"tensor": {"dtype": "DT_FLOAT", "tensorShape": {"dim": [{"size": "1"}, {"size": "1"}, {"size": "736"}, {"size": "128"}]}}}}}, {"name": "StatefulPartitionedCall/functional_1/conv4_block16_1_bn_1/batchnorm/sub", "op": "Const", "attr": {"dtype": {"type": "DT_FLOAT"}, "value": {"tensor": {"dtype": "DT_FLOAT", "tensorShape": {"dim": [{"size": "1"}, {"size": "1"}, {"size": "1"}, {"size": "128"}]}}}}}, {"name": "StatefulPartitionedCall/functional_1/conv4_block16_2_conv_1/convolution/ReadVariableOp", "op": "Const", "attr": {"dtype": {"type": "DT_FLOAT"}, "value": {"tensor": {"dtype": "DT_FLOAT", "tensorShape": {"dim": [{"size": "3"}, {"size": "3"}, {"size": "128"}, {"size": "32"}]}}}}}, {"name": "StatefulPartitionedCall/functional_1/conv4_block16_concat_1/concat/axis", "op": "Const", "attr": {"dtype": {"type": "DT_INT32"}, "value": {"tensor": {"dtype": "DT_INT32", "tensorShape": {}}}}}, {"name": "StatefulPartitionedCall/functional_1/conv4_block17_0_bn_1/batchnorm/mul", "op": "Const", "attr": {"dtype": {"type": "DT_FLOAT"}, "value": {"tensor": {"dtype": "DT_FLOAT", "tensorShape": {"dim": [{"size": "1"}, {"size": "1"}, {"size": "1"}, {"size": "768"}]}}}}}, {"name": "StatefulPartitionedCall/functional_1/conv4_block17_0_bn_1/batchnorm/sub", "op": "Const", "attr": {"dtype": {"type": "DT_FLOAT"}, "value": {"tensor": {"dtype": "DT_FLOAT", "tensorShape": {"dim": [{"size": "1"}, {"size": "1"}, {"size": "1"}, {"size": "768"}]}}}}}, {"name": "StatefulPartitionedCall/functional_1/conv4_block17_1_conv_1/convolution/merged_input", "op": "Const", "attr": {"dtype": {"type": "DT_FLOAT"}, "value": {"tensor": {"dtype": "DT_FLOAT", "tensorShape": {"dim": [{"size": "1"}, {"size": "1"}, {"size": "768"}, {"size": "128"}]}}}}}, {"name": "StatefulPartitionedCall/functional_1/conv4_block17_1_bn_1/batchnorm/sub", "op": "Const", "attr": {"dtype": {"type": "DT_FLOAT"}, "value": {"tensor": {"dtype": "DT_FLOAT", "tensorShape": {"dim": [{"size": "1"}, {"size": "1"}, {"size": "1"}, {"size": "128"}]}}}}}, {"name": "StatefulPartitionedCall/functional_1/conv4_block17_2_conv_1/convolution/ReadVariableOp", "op": "Const", "attr": {"dtype": {"type": "DT_FLOAT"}, "value": {"tensor": {"dtype": "DT_FLOAT", "tensorShape": {"dim": [{"size": "3"}, {"size": "3"}, {"size": "128"}, {"size": "32"}]}}}}}, {"name": "StatefulPartitionedCall/functional_1/conv4_block17_concat_1/concat/axis", "op": "Const", "attr": {"dtype": {"type": "DT_INT32"}, "value": {"tensor": {"dtype": "DT_INT32", "tensorShape": {}}}}}, {"name": "StatefulPartitionedCall/functional_1/conv4_block18_0_bn_1/batchnorm/mul", "op": "Const", "attr": {"dtype": {"type": "DT_FLOAT"}, "value": {"tensor": {"dtype": "DT_FLOAT", "tensorShape": {"dim": [{"size": "1"}, {"size": "1"}, {"size": "1"}, {"size": "800"}]}}}}}, {"name": "StatefulPartitionedCall/functional_1/conv4_block18_0_bn_1/batchnorm/sub", "op": "Const", "attr": {"dtype": {"type": "DT_FLOAT"}, "value": {"tensor": {"dtype": "DT_FLOAT", "tensorShape": {"dim": [{"size": "1"}, {"size": "1"}, {"size": "1"}, {"size": "800"}]}}}}}, {"name": "StatefulPartitionedCall/functional_1/conv4_block18_1_conv_1/convolution/merged_input", "op": "Const", "attr": {"dtype": {"type": "DT_FLOAT"}, "value": {"tensor": {"dtype": "DT_FLOAT", "tensorShape": {"dim": [{"size": "1"}, {"size": "1"}, {"size": "800"}, {"size": "128"}]}}}}}, {"name": "StatefulPartitionedCall/functional_1/conv4_block18_1_bn_1/batchnorm/sub", "op": "Const", "attr": {"dtype": {"type": "DT_FLOAT"}, "value": {"tensor": {"dtype": "DT_FLOAT", "tensorShape": {"dim": [{"size": "1"}, {"size": "1"}, {"size": "1"}, {"size": "128"}]}}}}}, {"name": "StatefulPartitionedCall/functional_1/conv4_block18_2_conv_1/convolution/ReadVariableOp", "op": "Const", "attr": {"dtype": {"type": "DT_FLOAT"}, "value": {"tensor": {"dtype": "DT_FLOAT", "tensorShape": {"dim": [{"size": "3"}, {"size": "3"}, {"size": "128"}, {"size": "32"}]}}}}}, {"name": "StatefulPartitionedCall/functional_1/conv4_block18_concat_1/concat/axis", "op": "Const", "attr": {"dtype": {"type": "DT_INT32"}, "value": {"tensor": {"dtype": "DT_INT32", "tensorShape": {}}}}}, {"name": "StatefulPartitionedCall/functional_1/conv4_block19_0_bn_1/batchnorm/mul", "op": "Const", "attr": {"dtype": {"type": "DT_FLOAT"}, "value": {"tensor": {"dtype": "DT_FLOAT", "tensorShape": {"dim": [{"size": "1"}, {"size": "1"}, {"size": "1"}, {"size": "832"}]}}}}}, {"name": "StatefulPartitionedCall/functional_1/conv4_block19_0_bn_1/batchnorm/sub", "op": "Const", "attr": {"dtype": {"type": "DT_FLOAT"}, "value": {"tensor": {"dtype": "DT_FLOAT", "tensorShape": {"dim": [{"size": "1"}, {"size": "1"}, {"size": "1"}, {"size": "832"}]}}}}}, {"name": "StatefulPartitionedCall/functional_1/conv4_block19_1_conv_1/convolution/merged_input", "op": "Const", "attr": {"dtype": {"type": "DT_FLOAT"}, "value": {"tensor": {"dtype": "DT_FLOAT", "tensorShape": {"dim": [{"size": "1"}, {"size": "1"}, {"size": "832"}, {"size": "128"}]}}}}}, {"name": "StatefulPartitionedCall/functional_1/conv4_block19_1_bn_1/batchnorm/sub", "op": "Const", "attr": {"dtype": {"type": "DT_FLOAT"}, "value": {"tensor": {"dtype": "DT_FLOAT", "tensorShape": {"dim": [{"size": "1"}, {"size": "1"}, {"size": "1"}, {"size": "128"}]}}}}}, {"name": "StatefulPartitionedCall/functional_1/conv4_block19_2_conv_1/convolution/ReadVariableOp", "op": "Const", "attr": {"dtype": {"type": "DT_FLOAT"}, "value": {"tensor": {"dtype": "DT_FLOAT", "tensorShape": {"dim": [{"size": "3"}, {"size": "3"}, {"size": "128"}, {"size": "32"}]}}}}}, {"name": "StatefulPartitionedCall/functional_1/conv4_block19_concat_1/concat/axis", "op": "Const", "attr": {"dtype": {"type": "DT_INT32"}, "value": {"tensor": {"dtype": "DT_INT32", "tensorShape": {}}}}}, {"name": "StatefulPartitionedCall/functional_1/conv4_block20_0_bn_1/batchnorm/mul", "op": "Const", "attr": {"dtype": {"type": "DT_FLOAT"}, "value": {"tensor": {"dtype": "DT_FLOAT", "tensorShape": {"dim": [{"size": "1"}, {"size": "1"}, {"size": "1"}, {"size": "864"}]}}}}}, {"name": "StatefulPartitionedCall/functional_1/conv4_block20_0_bn_1/batchnorm/sub", "op": "Const", "attr": {"dtype": {"type": "DT_FLOAT"}, "value": {"tensor": {"dtype": "DT_FLOAT", "tensorShape": {"dim": [{"size": "1"}, {"size": "1"}, {"size": "1"}, {"size": "864"}]}}}}}, {"name": "StatefulPartitionedCall/functional_1/conv4_block20_1_conv_1/convolution/merged_input", "op": "Const", "attr": {"dtype": {"type": "DT_FLOAT"}, "value": {"tensor": {"dtype": "DT_FLOAT", "tensorShape": {"dim": [{"size": "1"}, {"size": "1"}, {"size": "864"}, {"size": "128"}]}}}}}, {"name": "StatefulPartitionedCall/functional_1/conv4_block20_1_bn_1/batchnorm/sub", "op": "Const", "attr": {"dtype": {"type": "DT_FLOAT"}, "value": {"tensor": {"dtype": "DT_FLOAT", "tensorShape": {"dim": [{"size": "1"}, {"size": "1"}, {"size": "1"}, {"size": "128"}]}}}}}, {"name": "StatefulPartitionedCall/functional_1/conv4_block20_2_conv_1/convolution/ReadVariableOp", "op": "Const", "attr": {"dtype": {"type": "DT_FLOAT"}, "value": {"tensor": {"dtype": "DT_FLOAT", "tensorShape": {"dim": [{"size": "3"}, {"size": "3"}, {"size": "128"}, {"size": "32"}]}}}}}, {"name": "StatefulPartitionedCall/functional_1/conv4_block20_concat_1/concat/axis", "op": "Const", "attr": {"dtype": {"type": "DT_INT32"}, "value": {"tensor": {"dtype": "DT_INT32", "tensorShape": {}}}}}, {"name": "StatefulPartitionedCall/functional_1/conv4_block21_0_bn_1/batchnorm/mul", "op": "Const", "attr": {"dtype": {"type": "DT_FLOAT"}, "value": {"tensor": {"dtype": "DT_FLOAT", "tensorShape": {"dim": [{"size": "1"}, {"size": "1"}, {"size": "1"}, {"size": "896"}]}}}}}, {"name": "StatefulPartitionedCall/functional_1/conv4_block21_0_bn_1/batchnorm/sub", "op": "Const", "attr": {"dtype": {"type": "DT_FLOAT"}, "value": {"tensor": {"dtype": "DT_FLOAT", "tensorShape": {"dim": [{"size": "1"}, {"size": "1"}, {"size": "1"}, {"size": "896"}]}}}}}, {"name": "StatefulPartitionedCall/functional_1/conv4_block21_1_conv_1/convolution/merged_input", "op": "Const", "attr": {"dtype": {"type": "DT_FLOAT"}, "value": {"tensor": {"dtype": "DT_FLOAT", "tensorShape": {"dim": [{"size": "1"}, {"size": "1"}, {"size": "896"}, {"size": "128"}]}}}}}, {"name": "StatefulPartitionedCall/functional_1/conv4_block21_1_bn_1/batchnorm/sub", "op": "Const", "attr": {"dtype": {"type": "DT_FLOAT"}, "value": {"tensor": {"dtype": "DT_FLOAT", "tensorShape": {"dim": [{"size": "1"}, {"size": "1"}, {"size": "1"}, {"size": "128"}]}}}}}, {"name": "StatefulPartitionedCall/functional_1/conv4_block21_2_conv_1/convolution/ReadVariableOp", "op": "Const", "attr": {"dtype": {"type": "DT_FLOAT"}, "value": {"tensor": {"dtype": "DT_FLOAT", "tensorShape": {"dim": [{"size": "3"}, {"size": "3"}, {"size": "128"}, {"size": "32"}]}}}}}, {"name": "StatefulPartitionedCall/functional_1/conv4_block21_concat_1/concat/axis", "op": "Const", "attr": {"dtype": {"type": "DT_INT32"}, "value": {"tensor": {"dtype": "DT_INT32", "tensorShape": {}}}}}, {"name": "StatefulPartitionedCall/functional_1/conv4_block22_0_bn_1/batchnorm/mul", "op": "Const", "attr": {"dtype": {"type": "DT_FLOAT"}, "value": {"tensor": {"dtype": "DT_FLOAT", "tensorShape": {"dim": [{"size": "1"}, {"size": "1"}, {"size": "1"}, {"size": "928"}]}}}}}, {"name": "StatefulPartitionedCall/functional_1/conv4_block22_0_bn_1/batchnorm/sub", "op": "Const", "attr": {"dtype": {"type": "DT_FLOAT"}, "value": {"tensor": {"dtype": "DT_FLOAT", "tensorShape": {"dim": [{"size": "1"}, {"size": "1"}, {"size": "1"}, {"size": "928"}]}}}}}, {"name": "StatefulPartitionedCall/functional_1/conv4_block22_1_conv_1/convolution/merged_input", "op": "Const", "attr": {"dtype": {"type": "DT_FLOAT"}, "value": {"tensor": {"dtype": "DT_FLOAT", "tensorShape": {"dim": [{"size": "1"}, {"size": "1"}, {"size": "928"}, {"size": "128"}]}}}}}, {"name": "StatefulPartitionedCall/functional_1/conv4_block22_1_bn_1/batchnorm/sub", "op": "Const", "attr": {"dtype": {"type": "DT_FLOAT"}, "value": {"tensor": {"dtype": "DT_FLOAT", "tensorShape": {"dim": [{"size": "1"}, {"size": "1"}, {"size": "1"}, {"size": "128"}]}}}}}, {"name": "StatefulPartitionedCall/functional_1/conv4_block22_2_conv_1/convolution/ReadVariableOp", "op": "Const", "attr": {"dtype": {"type": "DT_FLOAT"}, "value": {"tensor": {"dtype": "DT_FLOAT", "tensorShape": {"dim": [{"size": "3"}, {"size": "3"}, {"size": "128"}, {"size": "32"}]}}}}}, {"name": "StatefulPartitionedCall/functional_1/conv4_block22_concat_1/concat/axis", "op": "Const", "attr": {"dtype": {"type": "DT_INT32"}, "value": {"tensor": {"dtype": "DT_INT32", "tensorShape": {}}}}}, {"name": "StatefulPartitionedCall/functional_1/conv4_block23_0_bn_1/batchnorm/mul", "op": "Const", "attr": {"dtype": {"type": "DT_FLOAT"}, "value": {"tensor": {"dtype": "DT_FLOAT", "tensorShape": {"dim": [{"size": "1"}, {"size": "1"}, {"size": "1"}, {"size": "960"}]}}}}}, {"name": "StatefulPartitionedCall/functional_1/conv4_block23_0_bn_1/batchnorm/sub", "op": "Const", "attr": {"dtype": {"type": "DT_FLOAT"}, "value": {"tensor": {"dtype": "DT_FLOAT", "tensorShape": {"dim": [{"size": "1"}, {"size": "1"}, {"size": "1"}, {"size": "960"}]}}}}}, {"name": "StatefulPartitionedCall/functional_1/conv4_block23_1_conv_1/convolution/merged_input", "op": "Const", "attr": {"dtype": {"type": "DT_FLOAT"}, "value": {"tensor": {"dtype": "DT_FLOAT", "tensorShape": {"dim": [{"size": "1"}, {"size": "1"}, {"size": "960"}, {"size": "128"}]}}}}}, {"name": "StatefulPartitionedCall/functional_1/conv4_block23_1_bn_1/batchnorm/sub", "op": "Const", "attr": {"dtype": {"type": "DT_FLOAT"}, "value": {"tensor": {"dtype": "DT_FLOAT", "tensorShape": {"dim": [{"size": "1"}, {"size": "1"}, {"size": "1"}, {"size": "128"}]}}}}}, {"name": "StatefulPartitionedCall/functional_1/conv4_block23_2_conv_1/convolution/ReadVariableOp", "op": "Const", "attr": {"dtype": {"type": "DT_FLOAT"}, "value": {"tensor": {"dtype": "DT_FLOAT", "tensorShape": {"dim": [{"size": "3"}, {"size": "3"}, {"size": "128"}, {"size": "32"}]}}}}}, {"name": "StatefulPartitionedCall/functional_1/conv4_block23_concat_1/concat/axis", "op": "Const", "attr": {"dtype": {"type": "DT_INT32"}, "value": {"tensor": {"dtype": "DT_INT32", "tensorShape": {}}}}}, {"name": "StatefulPartitionedCall/functional_1/conv4_block24_0_bn_1/batchnorm/mul", "op": "Const", "attr": {"dtype": {"type": "DT_FLOAT"}, "value": {"tensor": {"dtype": "DT_FLOAT", "tensorShape": {"dim": [{"size": "1"}, {"size": "1"}, {"size": "1"}, {"size": "992"}]}}}}}, {"name": "StatefulPartitionedCall/functional_1/conv4_block24_0_bn_1/batchnorm/sub", "op": "Const", "attr": {"dtype": {"type": "DT_FLOAT"}, "value": {"tensor": {"dtype": "DT_FLOAT", "tensorShape": {"dim": [{"size": "1"}, {"size": "1"}, {"size": "1"}, {"size": "992"}]}}}}}, {"name": "StatefulPartitionedCall/functional_1/conv4_block24_1_conv_1/convolution/merged_input", "op": "Const", "attr": {"dtype": {"type": "DT_FLOAT"}, "value": {"tensor": {"dtype": "DT_FLOAT", "tensorShape": {"dim": [{"size": "1"}, {"size": "1"}, {"size": "992"}, {"size": "128"}]}}}}}, {"name": "StatefulPartitionedCall/functional_1/conv4_block24_1_bn_1/batchnorm/sub", "op": "Const", "attr": {"dtype": {"type": "DT_FLOAT"}, "value": {"tensor": {"dtype": "DT_FLOAT", "tensorShape": {"dim": [{"size": "1"}, {"size": "1"}, {"size": "1"}, {"size": "128"}]}}}}}, {"name": "StatefulPartitionedCall/functional_1/conv4_block24_2_conv_1/convolution/ReadVariableOp", "op": "Const", "attr": {"dtype": {"type": "DT_FLOAT"}, "value": {"tensor": {"dtype": "DT_FLOAT", "tensorShape": {"dim": [{"size": "3"}, {"size": "3"}, {"size": "128"}, {"size": "32"}]}}}}}, {"name": "StatefulPartitionedCall/functional_1/conv4_block24_concat_1/concat/axis", "op": "Const", "attr": {"dtype": {"type": "DT_INT32"}, "value": {"tensor": {"dtype": "DT_INT32", "tensorShape": {}}}}}, {"name": "StatefulPartitionedCall/functional_1/pool4_bn_1/batchnorm/mul", "op": "Const", "attr": {"dtype": {"type": "DT_FLOAT"}, "value": {"tensor": {"dtype": "DT_FLOAT", "tensorShape": {"dim": [{"size": "1"}, {"size": "1"}, {"size": "1"}, {"size": "1024"}]}}}}}, {"name": "StatefulPartitionedCall/functional_1/pool4_bn_1/batchnorm/sub", "op": "Const", "attr": {"dtype": {"type": "DT_FLOAT"}, "value": {"tensor": {"dtype": "DT_FLOAT", "tensorShape": {"dim": [{"size": "1"}, {"size": "1"}, {"size": "1"}, {"size": "1024"}]}}}}}, {"name": "StatefulPartitionedCall/functional_1/pool4_conv_1/convolution/ReadVariableOp", "op": "Const", "attr": {"dtype": {"type": "DT_FLOAT"}, "value": {"tensor": {"dtype": "DT_FLOAT", "tensorShape": {"dim": [{"size": "1"}, {"size": "1"}, {"size": "1024"}, {"size": "512"}]}}}}}, {"name": "StatefulPartitionedCall/functional_1/conv5_block1_0_bn_1/batchnorm/mul", "op": "Const", "attr": {"dtype": {"type": "DT_FLOAT"}, "value": {"tensor": {"dtype": "DT_FLOAT", "tensorShape": {"dim": [{"size": "1"}, {"size": "1"}, {"size": "1"}, {"size": "512"}]}}}}}, {"name": "StatefulPartitionedCall/functional_1/conv5_block1_0_bn_1/batchnorm/sub", "op": "Const", "attr": {"dtype": {"type": "DT_FLOAT"}, "value": {"tensor": {"dtype": "DT_FLOAT", "tensorShape": {"dim": [{"size": "1"}, {"size": "1"}, {"size": "1"}, {"size": "512"}]}}}}}, {"name": "StatefulPartitionedCall/functional_1/conv5_block1_1_conv_1/convolution/merged_input", "op": "Const", "attr": {"dtype": {"type": "DT_FLOAT"}, "value": {"tensor": {"dtype": "DT_FLOAT", "tensorShape": {"dim": [{"size": "1"}, {"size": "1"}, {"size": "512"}, {"size": "128"}]}}}}}, {"name": "StatefulPartitionedCall/functional_1/conv5_block1_1_bn_1/batchnorm/sub", "op": "Const", "attr": {"dtype": {"type": "DT_FLOAT"}, "value": {"tensor": {"dtype": "DT_FLOAT", "tensorShape": {"dim": [{"size": "1"}, {"size": "1"}, {"size": "1"}, {"size": "128"}]}}}}}, {"name": "StatefulPartitionedCall/functional_1/conv5_block1_2_conv_1/convolution/ReadVariableOp", "op": "Const", "attr": {"dtype": {"type": "DT_FLOAT"}, "value": {"tensor": {"dtype": "DT_FLOAT", "tensorShape": {"dim": [{"size": "3"}, {"size": "3"}, {"size": "128"}, {"size": "32"}]}}}}}, {"name": "StatefulPartitionedCall/functional_1/conv5_block1_concat_1/concat/axis", "op": "Const", "attr": {"dtype": {"type": "DT_INT32"}, "value": {"tensor": {"dtype": "DT_INT32", "tensorShape": {}}}}}, {"name": "StatefulPartitionedCall/functional_1/conv5_block2_0_bn_1/batchnorm/mul", "op": "Const", "attr": {"dtype": {"type": "DT_FLOAT"}, "value": {"tensor": {"dtype": "DT_FLOAT", "tensorShape": {"dim": [{"size": "1"}, {"size": "1"}, {"size": "1"}, {"size": "544"}]}}}}}, {"name": "StatefulPartitionedCall/functional_1/conv5_block2_0_bn_1/batchnorm/sub", "op": "Const", "attr": {"dtype": {"type": "DT_FLOAT"}, "value": {"tensor": {"dtype": "DT_FLOAT", "tensorShape": {"dim": [{"size": "1"}, {"size": "1"}, {"size": "1"}, {"size": "544"}]}}}}}, {"name": "StatefulPartitionedCall/functional_1/conv5_block2_1_conv_1/convolution/merged_input", "op": "Const", "attr": {"dtype": {"type": "DT_FLOAT"}, "value": {"tensor": {"dtype": "DT_FLOAT", "tensorShape": {"dim": [{"size": "1"}, {"size": "1"}, {"size": "544"}, {"size": "128"}]}}}}}, {"name": "StatefulPartitionedCall/functional_1/conv5_block2_1_bn_1/batchnorm/sub", "op": "Const", "attr": {"dtype": {"type": "DT_FLOAT"}, "value": {"tensor": {"dtype": "DT_FLOAT", "tensorShape": {"dim": [{"size": "1"}, {"size": "1"}, {"size": "1"}, {"size": "128"}]}}}}}, {"name": "StatefulPartitionedCall/functional_1/conv5_block2_2_conv_1/convolution/ReadVariableOp", "op": "Const", "attr": {"dtype": {"type": "DT_FLOAT"}, "value": {"tensor": {"dtype": "DT_FLOAT", "tensorShape": {"dim": [{"size": "3"}, {"size": "3"}, {"size": "128"}, {"size": "32"}]}}}}}, {"name": "StatefulPartitionedCall/functional_1/conv5_block2_concat_1/concat/axis", "op": "Const", "attr": {"dtype": {"type": "DT_INT32"}, "value": {"tensor": {"dtype": "DT_INT32", "tensorShape": {}}}}}, {"name": "StatefulPartitionedCall/functional_1/conv5_block3_0_bn_1/batchnorm/mul", "op": "Const", "attr": {"dtype": {"type": "DT_FLOAT"}, "value": {"tensor": {"dtype": "DT_FLOAT", "tensorShape": {"dim": [{"size": "1"}, {"size": "1"}, {"size": "1"}, {"size": "576"}]}}}}}, {"name": "StatefulPartitionedCall/functional_1/conv5_block3_0_bn_1/batchnorm/sub", "op": "Const", "attr": {"dtype": {"type": "DT_FLOAT"}, "value": {"tensor": {"dtype": "DT_FLOAT", "tensorShape": {"dim": [{"size": "1"}, {"size": "1"}, {"size": "1"}, {"size": "576"}]}}}}}, {"name": "StatefulPartitionedCall/functional_1/conv5_block3_1_conv_1/convolution/merged_input", "op": "Const", "attr": {"dtype": {"type": "DT_FLOAT"}, "value": {"tensor": {"dtype": "DT_FLOAT", "tensorShape": {"dim": [{"size": "1"}, {"size": "1"}, {"size": "576"}, {"size": "128"}]}}}}}, {"name": "StatefulPartitionedCall/functional_1/conv5_block3_1_bn_1/batchnorm/sub", "op": "Const", "attr": {"dtype": {"type": "DT_FLOAT"}, "value": {"tensor": {"dtype": "DT_FLOAT", "tensorShape": {"dim": [{"size": "1"}, {"size": "1"}, {"size": "1"}, {"size": "128"}]}}}}}, {"name": "StatefulPartitionedCall/functional_1/conv5_block3_2_conv_1/convolution/ReadVariableOp", "op": "Const", "attr": {"dtype": {"type": "DT_FLOAT"}, "value": {"tensor": {"dtype": "DT_FLOAT", "tensorShape": {"dim": [{"size": "3"}, {"size": "3"}, {"size": "128"}, {"size": "32"}]}}}}}, {"name": "StatefulPartitionedCall/functional_1/conv5_block3_concat_1/concat/axis", "op": "Const", "attr": {"dtype": {"type": "DT_INT32"}, "value": {"tensor": {"dtype": "DT_INT32", "tensorShape": {}}}}}, {"name": "StatefulPartitionedCall/functional_1/conv5_block4_0_bn_1/batchnorm/mul", "op": "Const", "attr": {"dtype": {"type": "DT_FLOAT"}, "value": {"tensor": {"dtype": "DT_FLOAT", "tensorShape": {"dim": [{"size": "1"}, {"size": "1"}, {"size": "1"}, {"size": "608"}]}}}}}, {"name": "StatefulPartitionedCall/functional_1/conv5_block4_0_bn_1/batchnorm/sub", "op": "Const", "attr": {"dtype": {"type": "DT_FLOAT"}, "value": {"tensor": {"dtype": "DT_FLOAT", "tensorShape": {"dim": [{"size": "1"}, {"size": "1"}, {"size": "1"}, {"size": "608"}]}}}}}, {"name": "StatefulPartitionedCall/functional_1/conv5_block4_1_conv_1/convolution/merged_input", "op": "Const", "attr": {"dtype": {"type": "DT_FLOAT"}, "value": {"tensor": {"dtype": "DT_FLOAT", "tensorShape": {"dim": [{"size": "1"}, {"size": "1"}, {"size": "608"}, {"size": "128"}]}}}}}, {"name": "StatefulPartitionedCall/functional_1/conv5_block4_1_bn_1/batchnorm/sub", "op": "Const", "attr": {"dtype": {"type": "DT_FLOAT"}, "value": {"tensor": {"dtype": "DT_FLOAT", "tensorShape": {"dim": [{"size": "1"}, {"size": "1"}, {"size": "1"}, {"size": "128"}]}}}}}, {"name": "StatefulPartitionedCall/functional_1/conv5_block4_2_conv_1/convolution/ReadVariableOp", "op": "Const", "attr": {"dtype": {"type": "DT_FLOAT"}, "value": {"tensor": {"dtype": "DT_FLOAT", "tensorShape": {"dim": [{"size": "3"}, {"size": "3"}, {"size": "128"}, {"size": "32"}]}}}}}, {"name": "StatefulPartitionedCall/functional_1/conv5_block4_concat_1/concat/axis", "op": "Const", "attr": {"dtype": {"type": "DT_INT32"}, "value": {"tensor": {"dtype": "DT_INT32", "tensorShape": {}}}}}, {"name": "StatefulPartitionedCall/functional_1/conv5_block5_0_bn_1/batchnorm/mul", "op": "Const", "attr": {"dtype": {"type": "DT_FLOAT"}, "value": {"tensor": {"dtype": "DT_FLOAT", "tensorShape": {"dim": [{"size": "1"}, {"size": "1"}, {"size": "1"}, {"size": "640"}]}}}}}, {"name": "StatefulPartitionedCall/functional_1/conv5_block5_0_bn_1/batchnorm/sub", "op": "Const", "attr": {"dtype": {"type": "DT_FLOAT"}, "value": {"tensor": {"dtype": "DT_FLOAT", "tensorShape": {"dim": [{"size": "1"}, {"size": "1"}, {"size": "1"}, {"size": "640"}]}}}}}, {"name": "StatefulPartitionedCall/functional_1/conv5_block5_1_conv_1/convolution/merged_input", "op": "Const", "attr": {"dtype": {"type": "DT_FLOAT"}, "value": {"tensor": {"dtype": "DT_FLOAT", "tensorShape": {"dim": [{"size": "1"}, {"size": "1"}, {"size": "640"}, {"size": "128"}]}}}}}, {"name": "StatefulPartitionedCall/functional_1/conv5_block5_1_bn_1/batchnorm/sub", "op": "Const", "attr": {"dtype": {"type": "DT_FLOAT"}, "value": {"tensor": {"dtype": "DT_FLOAT", "tensorShape": {"dim": [{"size": "1"}, {"size": "1"}, {"size": "1"}, {"size": "128"}]}}}}}, {"name": "StatefulPartitionedCall/functional_1/conv5_block5_2_conv_1/convolution/ReadVariableOp", "op": "Const", "attr": {"dtype": {"type": "DT_FLOAT"}, "value": {"tensor": {"dtype": "DT_FLOAT", "tensorShape": {"dim": [{"size": "3"}, {"size": "3"}, {"size": "128"}, {"size": "32"}]}}}}}, {"name": "StatefulPartitionedCall/functional_1/conv5_block5_concat_1/concat/axis", "op": "Const", "attr": {"dtype": {"type": "DT_INT32"}, "value": {"tensor": {"dtype": "DT_INT32", "tensorShape": {}}}}}, {"name": "StatefulPartitionedCall/functional_1/conv5_block6_0_bn_1/batchnorm/mul", "op": "Const", "attr": {"dtype": {"type": "DT_FLOAT"}, "value": {"tensor": {"dtype": "DT_FLOAT", "tensorShape": {"dim": [{"size": "1"}, {"size": "1"}, {"size": "1"}, {"size": "672"}]}}}}}, {"name": "StatefulPartitionedCall/functional_1/conv5_block6_0_bn_1/batchnorm/sub", "op": "Const", "attr": {"dtype": {"type": "DT_FLOAT"}, "value": {"tensor": {"dtype": "DT_FLOAT", "tensorShape": {"dim": [{"size": "1"}, {"size": "1"}, {"size": "1"}, {"size": "672"}]}}}}}, {"name": "StatefulPartitionedCall/functional_1/conv5_block6_1_conv_1/convolution/merged_input", "op": "Const", "attr": {"dtype": {"type": "DT_FLOAT"}, "value": {"tensor": {"dtype": "DT_FLOAT", "tensorShape": {"dim": [{"size": "1"}, {"size": "1"}, {"size": "672"}, {"size": "128"}]}}}}}, {"name": "StatefulPartitionedCall/functional_1/conv5_block6_1_bn_1/batchnorm/sub", "op": "Const", "attr": {"dtype": {"type": "DT_FLOAT"}, "value": {"tensor": {"dtype": "DT_FLOAT", "tensorShape": {"dim": [{"size": "1"}, {"size": "1"}, {"size": "1"}, {"size": "128"}]}}}}}, {"name": "StatefulPartitionedCall/functional_1/conv5_block6_2_conv_1/convolution/ReadVariableOp", "op": "Const", "attr": {"dtype": {"type": "DT_FLOAT"}, "value": {"tensor": {"dtype": "DT_FLOAT", "tensorShape": {"dim": [{"size": "3"}, {"size": "3"}, {"size": "128"}, {"size": "32"}]}}}}}, {"name": "StatefulPartitionedCall/functional_1/conv5_block6_concat_1/concat/axis", "op": "Const", "attr": {"dtype": {"type": "DT_INT32"}, "value": {"tensor": {"dtype": "DT_INT32", "tensorShape": {}}}}}, {"name": "StatefulPartitionedCall/functional_1/conv5_block7_0_bn_1/batchnorm/mul", "op": "Const", "attr": {"dtype": {"type": "DT_FLOAT"}, "value": {"tensor": {"dtype": "DT_FLOAT", "tensorShape": {"dim": [{"size": "1"}, {"size": "1"}, {"size": "1"}, {"size": "704"}]}}}}}, {"name": "StatefulPartitionedCall/functional_1/conv5_block7_0_bn_1/batchnorm/sub", "op": "Const", "attr": {"dtype": {"type": "DT_FLOAT"}, "value": {"tensor": {"dtype": "DT_FLOAT", "tensorShape": {"dim": [{"size": "1"}, {"size": "1"}, {"size": "1"}, {"size": "704"}]}}}}}, {"name": "StatefulPartitionedCall/functional_1/conv5_block7_1_conv_1/convolution/merged_input", "op": "Const", "attr": {"dtype": {"type": "DT_FLOAT"}, "value": {"tensor": {"dtype": "DT_FLOAT", "tensorShape": {"dim": [{"size": "1"}, {"size": "1"}, {"size": "704"}, {"size": "128"}]}}}}}, {"name": "StatefulPartitionedCall/functional_1/conv5_block7_1_bn_1/batchnorm/sub", "op": "Const", "attr": {"dtype": {"type": "DT_FLOAT"}, "value": {"tensor": {"dtype": "DT_FLOAT", "tensorShape": {"dim": [{"size": "1"}, {"size": "1"}, {"size": "1"}, {"size": "128"}]}}}}}, {"name": "StatefulPartitionedCall/functional_1/conv5_block7_2_conv_1/convolution/ReadVariableOp", "op": "Const", "attr": {"dtype": {"type": "DT_FLOAT"}, "value": {"tensor": {"dtype": "DT_FLOAT", "tensorShape": {"dim": [{"size": "3"}, {"size": "3"}, {"size": "128"}, {"size": "32"}]}}}}}, {"name": "StatefulPartitionedCall/functional_1/conv5_block7_concat_1/concat/axis", "op": "Const", "attr": {"dtype": {"type": "DT_INT32"}, "value": {"tensor": {"dtype": "DT_INT32", "tensorShape": {}}}}}, {"name": "StatefulPartitionedCall/functional_1/conv5_block8_0_bn_1/batchnorm/mul", "op": "Const", "attr": {"dtype": {"type": "DT_FLOAT"}, "value": {"tensor": {"dtype": "DT_FLOAT", "tensorShape": {"dim": [{"size": "1"}, {"size": "1"}, {"size": "1"}, {"size": "736"}]}}}}}, {"name": "StatefulPartitionedCall/functional_1/conv5_block8_0_bn_1/batchnorm/sub", "op": "Const", "attr": {"dtype": {"type": "DT_FLOAT"}, "value": {"tensor": {"dtype": "DT_FLOAT", "tensorShape": {"dim": [{"size": "1"}, {"size": "1"}, {"size": "1"}, {"size": "736"}]}}}}}, {"name": "StatefulPartitionedCall/functional_1/conv5_block8_1_conv_1/convolution/merged_input", "op": "Const", "attr": {"dtype": {"type": "DT_FLOAT"}, "value": {"tensor": {"dtype": "DT_FLOAT", "tensorShape": {"dim": [{"size": "1"}, {"size": "1"}, {"size": "736"}, {"size": "128"}]}}}}}, {"name": "StatefulPartitionedCall/functional_1/conv5_block8_1_bn_1/batchnorm/sub", "op": "Const", "attr": {"dtype": {"type": "DT_FLOAT"}, "value": {"tensor": {"dtype": "DT_FLOAT", "tensorShape": {"dim": [{"size": "1"}, {"size": "1"}, {"size": "1"}, {"size": "128"}]}}}}}, {"name": "StatefulPartitionedCall/functional_1/conv5_block8_2_conv_1/convolution/ReadVariableOp", "op": "Const", "attr": {"dtype": {"type": "DT_FLOAT"}, "value": {"tensor": {"dtype": "DT_FLOAT", "tensorShape": {"dim": [{"size": "3"}, {"size": "3"}, {"size": "128"}, {"size": "32"}]}}}}}, {"name": "StatefulPartitionedCall/functional_1/conv5_block8_concat_1/concat/axis", "op": "Const", "attr": {"dtype": {"type": "DT_INT32"}, "value": {"tensor": {"dtype": "DT_INT32", "tensorShape": {}}}}}, {"name": "StatefulPartitionedCall/functional_1/conv5_block9_0_bn_1/batchnorm/mul", "op": "Const", "attr": {"dtype": {"type": "DT_FLOAT"}, "value": {"tensor": {"dtype": "DT_FLOAT", "tensorShape": {"dim": [{"size": "1"}, {"size": "1"}, {"size": "1"}, {"size": "768"}]}}}}}, {"name": "StatefulPartitionedCall/functional_1/conv5_block9_0_bn_1/batchnorm/sub", "op": "Const", "attr": {"dtype": {"type": "DT_FLOAT"}, "value": {"tensor": {"dtype": "DT_FLOAT", "tensorShape": {"dim": [{"size": "1"}, {"size": "1"}, {"size": "1"}, {"size": "768"}]}}}}}, {"name": "StatefulPartitionedCall/functional_1/conv5_block9_1_conv_1/convolution/merged_input", "op": "Const", "attr": {"dtype": {"type": "DT_FLOAT"}, "value": {"tensor": {"dtype": "DT_FLOAT", "tensorShape": {"dim": [{"size": "1"}, {"size": "1"}, {"size": "768"}, {"size": "128"}]}}}}}, {"name": "StatefulPartitionedCall/functional_1/conv5_block9_1_bn_1/batchnorm/sub", "op": "Const", "attr": {"dtype": {"type": "DT_FLOAT"}, "value": {"tensor": {"dtype": "DT_FLOAT", "tensorShape": {"dim": [{"size": "1"}, {"size": "1"}, {"size": "1"}, {"size": "128"}]}}}}}, {"name": "StatefulPartitionedCall/functional_1/conv5_block9_2_conv_1/convolution/ReadVariableOp", "op": "Const", "attr": {"dtype": {"type": "DT_FLOAT"}, "value": {"tensor": {"dtype": "DT_FLOAT", "tensorShape": {"dim": [{"size": "3"}, {"size": "3"}, {"size": "128"}, {"size": "32"}]}}}}}, {"name": "StatefulPartitionedCall/functional_1/conv5_block9_concat_1/concat/axis", "op": "Const", "attr": {"dtype": {"type": "DT_INT32"}, "value": {"tensor": {"dtype": "DT_INT32", "tensorShape": {}}}}}, {"name": "StatefulPartitionedCall/functional_1/conv5_block10_0_bn_1/batchnorm/mul", "op": "Const", "attr": {"dtype": {"type": "DT_FLOAT"}, "value": {"tensor": {"dtype": "DT_FLOAT", "tensorShape": {"dim": [{"size": "1"}, {"size": "1"}, {"size": "1"}, {"size": "800"}]}}}}}, {"name": "StatefulPartitionedCall/functional_1/conv5_block10_0_bn_1/batchnorm/sub", "op": "Const", "attr": {"dtype": {"type": "DT_FLOAT"}, "value": {"tensor": {"dtype": "DT_FLOAT", "tensorShape": {"dim": [{"size": "1"}, {"size": "1"}, {"size": "1"}, {"size": "800"}]}}}}}, {"name": "StatefulPartitionedCall/functional_1/conv5_block10_1_conv_1/convolution/merged_input", "op": "Const", "attr": {"dtype": {"type": "DT_FLOAT"}, "value": {"tensor": {"dtype": "DT_FLOAT", "tensorShape": {"dim": [{"size": "1"}, {"size": "1"}, {"size": "800"}, {"size": "128"}]}}}}}, {"name": "StatefulPartitionedCall/functional_1/conv5_block10_1_bn_1/batchnorm/sub", "op": "Const", "attr": {"dtype": {"type": "DT_FLOAT"}, "value": {"tensor": {"dtype": "DT_FLOAT", "tensorShape": {"dim": [{"size": "1"}, {"size": "1"}, {"size": "1"}, {"size": "128"}]}}}}}, {"name": "StatefulPartitionedCall/functional_1/conv5_block10_2_conv_1/convolution/ReadVariableOp", "op": "Const", "attr": {"dtype": {"type": "DT_FLOAT"}, "value": {"tensor": {"dtype": "DT_FLOAT", "tensorShape": {"dim": [{"size": "3"}, {"size": "3"}, {"size": "128"}, {"size": "32"}]}}}}}, {"name": "StatefulPartitionedCall/functional_1/conv5_block10_concat_1/concat/axis", "op": "Const", "attr": {"dtype": {"type": "DT_INT32"}, "value": {"tensor": {"dtype": "DT_INT32", "tensorShape": {}}}}}, {"name": "StatefulPartitionedCall/functional_1/conv5_block11_0_bn_1/batchnorm/mul", "op": "Const", "attr": {"dtype": {"type": "DT_FLOAT"}, "value": {"tensor": {"dtype": "DT_FLOAT", "tensorShape": {"dim": [{"size": "1"}, {"size": "1"}, {"size": "1"}, {"size": "832"}]}}}}}, {"name": "StatefulPartitionedCall/functional_1/conv5_block11_0_bn_1/batchnorm/sub", "op": "Const", "attr": {"dtype": {"type": "DT_FLOAT"}, "value": {"tensor": {"dtype": "DT_FLOAT", "tensorShape": {"dim": [{"size": "1"}, {"size": "1"}, {"size": "1"}, {"size": "832"}]}}}}}, {"name": "StatefulPartitionedCall/functional_1/conv5_block11_1_conv_1/convolution/merged_input", "op": "Const", "attr": {"dtype": {"type": "DT_FLOAT"}, "value": {"tensor": {"dtype": "DT_FLOAT", "tensorShape": {"dim": [{"size": "1"}, {"size": "1"}, {"size": "832"}, {"size": "128"}]}}}}}, {"name": "StatefulPartitionedCall/functional_1/conv5_block11_1_bn_1/batchnorm/sub", "op": "Const", "attr": {"dtype": {"type": "DT_FLOAT"}, "value": {"tensor": {"dtype": "DT_FLOAT", "tensorShape": {"dim": [{"size": "1"}, {"size": "1"}, {"size": "1"}, {"size": "128"}]}}}}}, {"name": "StatefulPartitionedCall/functional_1/conv5_block11_2_conv_1/convolution/ReadVariableOp", "op": "Const", "attr": {"dtype": {"type": "DT_FLOAT"}, "value": {"tensor": {"dtype": "DT_FLOAT", "tensorShape": {"dim": [{"size": "3"}, {"size": "3"}, {"size": "128"}, {"size": "32"}]}}}}}, {"name": "StatefulPartitionedCall/functional_1/conv5_block11_concat_1/concat/axis", "op": "Const", "attr": {"dtype": {"type": "DT_INT32"}, "value": {"tensor": {"dtype": "DT_INT32", "tensorShape": {}}}}}, {"name": "StatefulPartitionedCall/functional_1/conv5_block12_0_bn_1/batchnorm/mul", "op": "Const", "attr": {"dtype": {"type": "DT_FLOAT"}, "value": {"tensor": {"dtype": "DT_FLOAT", "tensorShape": {"dim": [{"size": "1"}, {"size": "1"}, {"size": "1"}, {"size": "864"}]}}}}}, {"name": "StatefulPartitionedCall/functional_1/conv5_block12_0_bn_1/batchnorm/sub", "op": "Const", "attr": {"dtype": {"type": "DT_FLOAT"}, "value": {"tensor": {"dtype": "DT_FLOAT", "tensorShape": {"dim": [{"size": "1"}, {"size": "1"}, {"size": "1"}, {"size": "864"}]}}}}}, {"name": "StatefulPartitionedCall/functional_1/conv5_block12_1_conv_1/convolution/merged_input", "op": "Const", "attr": {"dtype": {"type": "DT_FLOAT"}, "value": {"tensor": {"dtype": "DT_FLOAT", "tensorShape": {"dim": [{"size": "1"}, {"size": "1"}, {"size": "864"}, {"size": "128"}]}}}}}, {"name": "StatefulPartitionedCall/functional_1/conv5_block12_1_bn_1/batchnorm/sub", "op": "Const", "attr": {"dtype": {"type": "DT_FLOAT"}, "value": {"tensor": {"dtype": "DT_FLOAT", "tensorShape": {"dim": [{"size": "1"}, {"size": "1"}, {"size": "1"}, {"size": "128"}]}}}}}, {"name": "StatefulPartitionedCall/functional_1/conv5_block12_2_conv_1/convolution/ReadVariableOp", "op": "Const", "attr": {"dtype": {"type": "DT_FLOAT"}, "value": {"tensor": {"dtype": "DT_FLOAT", "tensorShape": {"dim": [{"size": "3"}, {"size": "3"}, {"size": "128"}, {"size": "32"}]}}}}}, {"name": "StatefulPartitionedCall/functional_1/conv5_block12_concat_1/concat/axis", "op": "Const", "attr": {"dtype": {"type": "DT_INT32"}, "value": {"tensor": {"dtype": "DT_INT32", "tensorShape": {}}}}}, {"name": "StatefulPartitionedCall/functional_1/conv5_block13_0_bn_1/batchnorm/mul", "op": "Const", "attr": {"dtype": {"type": "DT_FLOAT"}, "value": {"tensor": {"dtype": "DT_FLOAT", "tensorShape": {"dim": [{"size": "1"}, {"size": "1"}, {"size": "1"}, {"size": "896"}]}}}}}, {"name": "StatefulPartitionedCall/functional_1/conv5_block13_0_bn_1/batchnorm/sub", "op": "Const", "attr": {"dtype": {"type": "DT_FLOAT"}, "value": {"tensor": {"dtype": "DT_FLOAT", "tensorShape": {"dim": [{"size": "1"}, {"size": "1"}, {"size": "1"}, {"size": "896"}]}}}}}, {"name": "StatefulPartitionedCall/functional_1/conv5_block13_1_conv_1/convolution/merged_input", "op": "Const", "attr": {"dtype": {"type": "DT_FLOAT"}, "value": {"tensor": {"dtype": "DT_FLOAT", "tensorShape": {"dim": [{"size": "1"}, {"size": "1"}, {"size": "896"}, {"size": "128"}]}}}}}, {"name": "StatefulPartitionedCall/functional_1/conv5_block13_1_bn_1/batchnorm/sub", "op": "Const", "attr": {"dtype": {"type": "DT_FLOAT"}, "value": {"tensor": {"dtype": "DT_FLOAT", "tensorShape": {"dim": [{"size": "1"}, {"size": "1"}, {"size": "1"}, {"size": "128"}]}}}}}, {"name": "StatefulPartitionedCall/functional_1/conv5_block13_2_conv_1/convolution/ReadVariableOp", "op": "Const", "attr": {"dtype": {"type": "DT_FLOAT"}, "value": {"tensor": {"dtype": "DT_FLOAT", "tensorShape": {"dim": [{"size": "3"}, {"size": "3"}, {"size": "128"}, {"size": "32"}]}}}}}, {"name": "StatefulPartitionedCall/functional_1/conv5_block13_concat_1/concat/axis", "op": "Const", "attr": {"dtype": {"type": "DT_INT32"}, "value": {"tensor": {"dtype": "DT_INT32", "tensorShape": {}}}}}, {"name": "StatefulPartitionedCall/functional_1/conv5_block14_0_bn_1/batchnorm/mul", "op": "Const", "attr": {"dtype": {"type": "DT_FLOAT"}, "value": {"tensor": {"dtype": "DT_FLOAT", "tensorShape": {"dim": [{"size": "1"}, {"size": "1"}, {"size": "1"}, {"size": "928"}]}}}}}, {"name": "StatefulPartitionedCall/functional_1/conv5_block14_0_bn_1/batchnorm/sub", "op": "Const", "attr": {"dtype": {"type": "DT_FLOAT"}, "value": {"tensor": {"dtype": "DT_FLOAT", "tensorShape": {"dim": [{"size": "1"}, {"size": "1"}, {"size": "1"}, {"size": "928"}]}}}}}, {"name": "StatefulPartitionedCall/functional_1/conv5_block14_1_conv_1/convolution/merged_input", "op": "Const", "attr": {"dtype": {"type": "DT_FLOAT"}, "value": {"tensor": {"dtype": "DT_FLOAT", "tensorShape": {"dim": [{"size": "1"}, {"size": "1"}, {"size": "928"}, {"size": "128"}]}}}}}, {"name": "StatefulPartitionedCall/functional_1/conv5_block14_1_bn_1/batchnorm/sub", "op": "Const", "attr": {"dtype": {"type": "DT_FLOAT"}, "value": {"tensor": {"dtype": "DT_FLOAT", "tensorShape": {"dim": [{"size": "1"}, {"size": "1"}, {"size": "1"}, {"size": "128"}]}}}}}, {"name": "StatefulPartitionedCall/functional_1/conv5_block14_2_conv_1/convolution/ReadVariableOp", "op": "Const", "attr": {"dtype": {"type": "DT_FLOAT"}, "value": {"tensor": {"dtype": "DT_FLOAT", "tensorShape": {"dim": [{"size": "3"}, {"size": "3"}, {"size": "128"}, {"size": "32"}]}}}}}, {"name": "StatefulPartitionedCall/functional_1/conv5_block14_concat_1/concat/axis", "op": "Const", "attr": {"dtype": {"type": "DT_INT32"}, "value": {"tensor": {"dtype": "DT_INT32", "tensorShape": {}}}}}, {"name": "StatefulPartitionedCall/functional_1/conv5_block15_0_bn_1/batchnorm/mul", "op": "Const", "attr": {"dtype": {"type": "DT_FLOAT"}, "value": {"tensor": {"dtype": "DT_FLOAT", "tensorShape": {"dim": [{"size": "1"}, {"size": "1"}, {"size": "1"}, {"size": "960"}]}}}}}, {"name": "StatefulPartitionedCall/functional_1/conv5_block15_0_bn_1/batchnorm/sub", "op": "Const", "attr": {"dtype": {"type": "DT_FLOAT"}, "value": {"tensor": {"dtype": "DT_FLOAT", "tensorShape": {"dim": [{"size": "1"}, {"size": "1"}, {"size": "1"}, {"size": "960"}]}}}}}, {"name": "StatefulPartitionedCall/functional_1/conv5_block15_1_conv_1/convolution/merged_input", "op": "Const", "attr": {"dtype": {"type": "DT_FLOAT"}, "value": {"tensor": {"dtype": "DT_FLOAT", "tensorShape": {"dim": [{"size": "1"}, {"size": "1"}, {"size": "960"}, {"size": "128"}]}}}}}, {"name": "StatefulPartitionedCall/functional_1/conv5_block15_1_bn_1/batchnorm/sub", "op": "Const", "attr": {"dtype": {"type": "DT_FLOAT"}, "value": {"tensor": {"dtype": "DT_FLOAT", "tensorShape": {"dim": [{"size": "1"}, {"size": "1"}, {"size": "1"}, {"size": "128"}]}}}}}, {"name": "StatefulPartitionedCall/functional_1/conv5_block15_2_conv_1/convolution/ReadVariableOp", "op": "Const", "attr": {"dtype": {"type": "DT_FLOAT"}, "value": {"tensor": {"dtype": "DT_FLOAT", "tensorShape": {"dim": [{"size": "3"}, {"size": "3"}, {"size": "128"}, {"size": "32"}]}}}}}, {"name": "StatefulPartitionedCall/functional_1/conv5_block15_concat_1/concat/axis", "op": "Const", "attr": {"dtype": {"type": "DT_INT32"}, "value": {"tensor": {"dtype": "DT_INT32", "tensorShape": {}}}}}, {"name": "StatefulPartitionedCall/functional_1/conv5_block16_0_bn_1/batchnorm/mul", "op": "Const", "attr": {"dtype": {"type": "DT_FLOAT"}, "value": {"tensor": {"dtype": "DT_FLOAT", "tensorShape": {"dim": [{"size": "1"}, {"size": "1"}, {"size": "1"}, {"size": "992"}]}}}}}, {"name": "StatefulPartitionedCall/functional_1/conv5_block16_0_bn_1/batchnorm/sub", "op": "Const", "attr": {"dtype": {"type": "DT_FLOAT"}, "value": {"tensor": {"dtype": "DT_FLOAT", "tensorShape": {"dim": [{"size": "1"}, {"size": "1"}, {"size": "1"}, {"size": "992"}]}}}}}, {"name": "StatefulPartitionedCall/functional_1/conv5_block16_1_conv_1/convolution/merged_input", "op": "Const", "attr": {"dtype": {"type": "DT_FLOAT"}, "value": {"tensor": {"dtype": "DT_FLOAT", "tensorShape": {"dim": [{"size": "1"}, {"size": "1"}, {"size": "992"}, {"size": "128"}]}}}}}, {"name": "StatefulPartitionedCall/functional_1/conv5_block16_1_bn_1/batchnorm/sub", "op": "Const", "attr": {"dtype": {"type": "DT_FLOAT"}, "value": {"tensor": {"dtype": "DT_FLOAT", "tensorShape": {"dim": [{"size": "1"}, {"size": "1"}, {"size": "1"}, {"size": "128"}]}}}}}, {"name": "StatefulPartitionedCall/functional_1/conv5_block16_2_conv_1/convolution/ReadVariableOp", "op": "Const", "attr": {"dtype": {"type": "DT_FLOAT"}, "value": {"tensor": {"dtype": "DT_FLOAT", "tensorShape": {"dim": [{"size": "3"}, {"size": "3"}, {"size": "128"}, {"size": "32"}]}}}}}, {"name": "StatefulPartitionedCall/functional_1/conv5_block16_concat_1/concat/axis", "op": "Const", "attr": {"dtype": {"type": "DT_INT32"}, "value": {"tensor": {"dtype": "DT_INT32", "tensorShape": {}}}}}, {"name": "StatefulPartitionedCall/functional_1/bn_1/batchnorm/mul", "op": "Const", "attr": {"dtype": {"type": "DT_FLOAT"}, "value": {"tensor": {"dtype": "DT_FLOAT", "tensorShape": {"dim": [{"size": "1"}, {"size": "1"}, {"size": "1"}, {"size": "1024"}]}}}}}, {"name": "StatefulPartitionedCall/functional_1/bn_1/batchnorm/sub", "op": "Const", "attr": {"dtype": {"type": "DT_FLOAT"}, "value": {"tensor": {"dtype": "DT_FLOAT", "tensorShape": {"dim": [{"size": "1"}, {"size": "1"}, {"size": "1"}, {"size": "1024"}]}}}}}, {"name": "StatefulPartitionedCall/functional_1/global_average_pooling2d_1/Mean/reduction_indices", "op": "Const", "attr": {"dtype": {"type": "DT_INT32"}, "value": {"tensor": {"dtype": "DT_INT32", "tensorShape": {"dim": [{"size": "2"}]}}}}}, {"name": "StatefulPartitionedCall/functional_1/batch_normalization_1/batchnorm/mul", "op": "Const", "attr": {"dtype": {"type": "DT_FLOAT"}, "value": {"tensor": {"dtype": "DT_FLOAT", "tensorShape": {"dim": [{"size": "1024"}]}}}}}, {"name": "StatefulPartitionedCall/functional_1/batch_normalization_1/batchnorm/sub", "op": "Const", "attr": {"dtype": {"type": "DT_FLOAT"}, "value": {"tensor": {"dtype": "DT_FLOAT", "tensorShape": {"dim": [{"size": "1024"}]}}}}}, {"name": "StatefulPartitionedCall/functional_1/dense_1/Cast/ReadVariableOp", "op": "Const", "attr": {"dtype": {"type": "DT_FLOAT"}, "value": {"tensor": {"dtype": "DT_FLOAT", "tensorShape": {"dim": [{"size": "1024"}, {"size": "256"}]}}}}}, {"name": "StatefulPartitionedCall/functional_1/dense_1/BiasAdd/ReadVariableOp", "op": "Const", "attr": {"dtype": {"type": "DT_FLOAT"}, "value": {"tensor": {"dtype": "DT_FLOAT", "tensorShape": {"dim": [{"size": "256"}]}}}}}, {"name": "StatefulPartitionedCall/functional_1/dense_1_2/Cast/ReadVariableOp", "op": "Const", "attr": {"dtype": {"type": "DT_FLOAT"}, "value": {"tensor": {"dtype": "DT_FLOAT", "tensorShape": {"dim": [{"size": "256"}, {"size": "5"}]}}}}}, {"name": "StatefulPartitionedCall/functional_1/dense_1_2/BiasAdd/ReadVariableOp", "op": "Const", "attr": {"dtype": {"type": "DT_FLOAT"}, "value": {"tensor": {"dtype": "DT_FLOAT", "tensorShape": {"dim": [{"size": "5"}]}}}}}, {"name": "input_layer", "op": "Placeholder", "attr": {"dtype": {"type": "DT_FLOAT"}, "shape": {"shape": {"dim": [{"size": "-1"}, {"size": "224"}, {"size": "224"}, {"size": "3"}]}}}}, {"name": "StatefulPartitionedCall/functional_1/zero_padding2d_1/Pad", "op": "Pad", "input": ["input_layer", "StatefulPartitionedCall/functional_1/zero_padding2d_1/Const"], "attr": {"Tpaddings": {"type": "DT_INT32"}, "T": {"type": "DT_FLOAT"}}}, {"name": "StatefulPartitionedCall/functional_1/conv1_relu_1/Relu", "op": "_FusedConv2D", "input": ["StatefulPartitionedCall/functional_1/zero_padding2d_1/Pad", "StatefulPartitionedCall/functional_1/conv1_conv_1/convolution/merged_input", "StatefulPartitionedCall/functional_1/conv1_bn_1/batchnorm/sub"], "device": "/device:CPU:0", "attr": {"_input_shapes": {"list": {"shape": [{"dim": [{"size": "-185"}, {"size": "-189"}, {"size": "-190"}, {"size": "-188"}]}, {"dim": [{"size": "7"}, {"size": "7"}, {"size": "3"}, {"size": "64"}]}]}}, "strides": {"list": {"i": ["1", "2", "2", "1"]}}, "use_cudnn_on_gpu": {"b": true}, "num_host_args": {"i": "0"}, "explicit_paddings": {"list": {}}, "dilations": {"list": {"i": ["1", "1", "1", "1"]}}, "data_format": {"s": "TkhXQw=="}, "TArgs": {"list": {"type": ["DT_FLOAT"]}}, "num_args": {"i": "1"}, "filter_format": {"s": "SFdJTw=="}, "fused_ops": {"list": {"s": ["Qmlhc0FkZA==", "UmVsdQ=="]}}, "T": {"type": "DT_FLOAT"}, "epsilon": {"f": 0.0}, "leakyrelu_alpha": {"f": 0.2}, "padding": {"s": "VkFMSUQ="}}}, {"name": "StatefulPartitionedCall/functional_1/zero_padding2d_1_2/Pad", "op": "Pad", "input": ["StatefulPartitionedCall/functional_1/conv1_relu_1/Relu", "StatefulPartitionedCall/functional_1/zero_padding2d_1_2/Const"], "attr": {"Tpaddings": {"type": "DT_INT32"}, "T": {"type": "DT_FLOAT"}}}, {"name": "StatefulPartitionedCall/functional_1/pool1_1/MaxPool2d", "op": "MaxPool", "input": ["StatefulPartitionedCall/functional_1/zero_padding2d_1_2/Pad"], "attr": {"strides": {"list": {"i": ["1", "2", "2", "1"]}}, "ksize": {"list": {"i": ["1", "3", "3", "1"]}}, "data_format": {"s": "TkhXQw=="}, "explicit_paddings": {"list": {}}, "T": {"type": "DT_FLOAT"}, "padding": {"s": "VkFMSUQ="}}}, {"name": "StatefulPartitionedCall/functional_1/conv2_block1_0_bn_1/batchnorm/mul_1", "op": "Mul", "input": ["StatefulPartitionedCall/functional_1/pool1_1/MaxPool2d", "StatefulPartitionedCall/functional_1/conv2_block1_0_bn_1/batchnorm/mul"], "attr": {"T": {"type": "DT_FLOAT"}}}, {"name": "StatefulPartitionedCall/functional_1/conv2_block1_0_bn_1/batchnorm/add_1", "op": "AddV2", "input": ["StatefulPartitionedCall/functional_1/conv2_block1_0_bn_1/batchnorm/mul_1", "StatefulPartitionedCall/functional_1/conv2_block1_0_bn_1/batchnorm/sub"], "attr": {"T": {"type": "DT_FLOAT"}}}, {"name": "StatefulPartitionedCall/functional_1/conv2_block1_0_relu_1/Relu", "op": "Relu", "input": ["StatefulPartitionedCall/functional_1/conv2_block1_0_bn_1/batchnorm/add_1"], "attr": {"T": {"type": "DT_FLOAT"}}}, {"name": "StatefulPartitionedCall/functional_1/conv2_block1_1_relu_1/Relu", "op": "_FusedConv2D", "input": ["StatefulPartitionedCall/functional_1/conv2_block1_0_relu_1/Relu", "StatefulPartitionedCall/functional_1/conv2_block1_1_conv_1/convolution/merged_input", "StatefulPartitionedCall/functional_1/conv2_block1_1_bn_1/batchnorm/sub"], "device": "/device:CPU:0", "attr": {"_input_shapes": {"list": {"shape": [{"dim": [{"size": "-2"}, {"size": "-4"}, {"size": "-6"}, {"size": "64"}]}, {"dim": [{"size": "1"}, {"size": "1"}, {"size": "64"}, {"size": "128"}]}]}}, "strides": {"list": {"i": ["1", "1", "1", "1"]}}, "use_cudnn_on_gpu": {"b": true}, "data_format": {"s": "TkhXQw=="}, "explicit_paddings": {"list": {}}, "dilations": {"list": {"i": ["1", "1", "1", "1"]}}, "num_host_args": {"i": "0"}, "num_args": {"i": "1"}, "TArgs": {"list": {"type": ["DT_FLOAT"]}}, "filter_format": {"s": "SFdJTw=="}, "fused_ops": {"list": {"s": ["Qmlhc0FkZA==", "UmVsdQ=="]}}, "T": {"type": "DT_FLOAT"}, "epsilon": {"f": 0.0}, "leakyrelu_alpha": {"f": 0.2}, "padding": {"s": "VkFMSUQ="}}}, {"name": "StatefulPartitionedCall/functional_1/conv2_block1_2_conv_1/convolution", "op": "Conv2D", "input": ["StatefulPartitionedCall/functional_1/conv2_block1_1_relu_1/Relu", "StatefulPartitionedCall/functional_1/conv2_block1_2_conv_1/convolution/ReadVariableOp"], "device": "/device:CPU:0", "attr": {"_input_shapes": {"list": {"shape": [{"dim": [{"size": "-2"}, {"size": "-4"}, {"size": "-6"}, {"size": "-201"}]}, {"dim": [{"size": "3"}, {"size": "3"}, {"size": "128"}, {"size": "32"}]}]}}, "strides": {"list": {"i": ["1", "1", "1", "1"]}}, "use_cudnn_on_gpu": {"b": true}, "data_format": {"s": "TkhXQw=="}, "T": {"type": "DT_FLOAT"}, "dilations": {"list": {"i": ["1", "1", "1", "1"]}}, "explicit_paddings": {"list": {}}, "padding": {"s": "U0FNRQ=="}}}, {"name": "StatefulPartitionedCall/functional_1/conv2_block1_concat_1/concat", "op": "ConcatV2", "input": ["StatefulPartitionedCall/functional_1/pool1_1/MaxPool2d", "StatefulPartitionedCall/functional_1/conv2_block1_2_conv_1/convolution", "StatefulPartitionedCall/functional_1/conv2_block1_concat_1/concat/axis"], "attr": {"Tidx": {"type": "DT_INT32"}, "T": {"type": "DT_FLOAT"}, "N": {"i": "2"}}}, {"name": "StatefulPartitionedCall/functional_1/conv2_block2_0_bn_1/batchnorm/mul_1", "op": "Mul", "input": ["StatefulPartitionedCall/functional_1/conv2_block1_concat_1/concat", "StatefulPartitionedCall/functional_1/conv2_block2_0_bn_1/batchnorm/mul"], "attr": {"T": {"type": "DT_FLOAT"}}}, {"name": "StatefulPartitionedCall/functional_1/conv2_block2_0_bn_1/batchnorm/add_1", "op": "AddV2", "input": ["StatefulPartitionedCall/functional_1/conv2_block2_0_bn_1/batchnorm/mul_1", "StatefulPartitionedCall/functional_1/conv2_block2_0_bn_1/batchnorm/sub"], "attr": {"T": {"type": "DT_FLOAT"}}}, {"name": "StatefulPartitionedCall/functional_1/conv2_block2_0_relu_1/Relu", "op": "Relu", "input": ["StatefulPartitionedCall/functional_1/conv2_block2_0_bn_1/batchnorm/add_1"], "attr": {"T": {"type": "DT_FLOAT"}}}, {"name": "StatefulPartitionedCall/functional_1/conv2_block2_1_relu_1/Relu", "op": "_FusedConv2D", "input": ["StatefulPartitionedCall/functional_1/conv2_block2_0_relu_1/Relu", "StatefulPartitionedCall/functional_1/conv2_block2_1_conv_1/convolution/merged_input", "StatefulPartitionedCall/functional_1/conv2_block2_1_bn_1/batchnorm/sub"], "device": "/device:CPU:0", "attr": {"_input_shapes": {"list": {"shape": [{"dim": [{"size": "-2"}, {"size": "-4"}, {"size": "-6"}, {"size": "96"}]}, {"dim": [{"size": "1"}, {"size": "1"}, {"size": "96"}, {"size": "128"}]}]}}, "strides": {"list": {"i": ["1", "1", "1", "1"]}}, "use_cudnn_on_gpu": {"b": true}, "num_host_args": {"i": "0"}, "explicit_paddings": {"list": {}}, "dilations": {"list": {"i": ["1", "1", "1", "1"]}}, "data_format": {"s": "TkhXQw=="}, "TArgs": {"list": {"type": ["DT_FLOAT"]}}, "num_args": {"i": "1"}, "filter_format": {"s": "SFdJTw=="}, "fused_ops": {"list": {"s": ["Qmlhc0FkZA==", "UmVsdQ=="]}}, "T": {"type": "DT_FLOAT"}, "epsilon": {"f": 0.0}, "leakyrelu_alpha": {"f": 0.2}, "padding": {"s": "VkFMSUQ="}}}, {"name": "StatefulPartitionedCall/functional_1/conv2_block2_2_conv_1/convolution", "op": "Conv2D", "input": ["StatefulPartitionedCall/functional_1/conv2_block2_1_relu_1/Relu", "StatefulPartitionedCall/functional_1/conv2_block2_2_conv_1/convolution/ReadVariableOp"], "device": "/device:CPU:0", "attr": {"_input_shapes": {"list": {"shape": [{"dim": [{"size": "-2"}, {"size": "-4"}, {"size": "-6"}, {"size": "-205"}]}, {"dim": [{"size": "3"}, {"size": "3"}, {"size": "128"}, {"size": "32"}]}]}}, "strides": {"list": {"i": ["1", "1", "1", "1"]}}, "use_cudnn_on_gpu": {"b": true}, "data_format": {"s": "TkhXQw=="}, "T": {"type": "DT_FLOAT"}, "dilations": {"list": {"i": ["1", "1", "1", "1"]}}, "explicit_paddings": {"list": {}}, "padding": {"s": "U0FNRQ=="}}}, {"name": "StatefulPartitionedCall/functional_1/conv2_block2_concat_1/concat", "op": "ConcatV2", "input": ["StatefulPartitionedCall/functional_1/conv2_block1_concat_1/concat", "StatefulPartitionedCall/functional_1/conv2_block2_2_conv_1/convolution", "StatefulPartitionedCall/functional_1/conv2_block2_concat_1/concat/axis"], "attr": {"Tidx": {"type": "DT_INT32"}, "T": {"type": "DT_FLOAT"}, "N": {"i": "2"}}}, {"name": "StatefulPartitionedCall/functional_1/conv2_block3_0_bn_1/batchnorm/mul_1", "op": "Mul", "input": ["StatefulPartitionedCall/functional_1/conv2_block2_concat_1/concat", "StatefulPartitionedCall/functional_1/conv2_block3_0_bn_1/batchnorm/mul"], "attr": {"T": {"type": "DT_FLOAT"}}}, {"name": "StatefulPartitionedCall/functional_1/conv2_block3_0_bn_1/batchnorm/add_1", "op": "AddV2", "input": ["StatefulPartitionedCall/functional_1/conv2_block3_0_bn_1/batchnorm/mul_1", "StatefulPartitionedCall/functional_1/conv2_block3_0_bn_1/batchnorm/sub"], "attr": {"T": {"type": "DT_FLOAT"}}}, {"name": "StatefulPartitionedCall/functional_1/conv2_block3_0_relu_1/Relu", "op": "Relu", "input": ["StatefulPartitionedCall/functional_1/conv2_block3_0_bn_1/batchnorm/add_1"], "attr": {"T": {"type": "DT_FLOAT"}}}, {"name": "StatefulPartitionedCall/functional_1/conv2_block3_1_relu_1/Relu", "op": "_FusedConv2D", "input": ["StatefulPartitionedCall/functional_1/conv2_block3_0_relu_1/Relu", "StatefulPartitionedCall/functional_1/conv2_block3_1_conv_1/convolution/merged_input", "StatefulPartitionedCall/functional_1/conv2_block3_1_bn_1/batchnorm/sub"], "device": "/device:CPU:0", "attr": {"_input_shapes": {"list": {"shape": [{"dim": [{"size": "-2"}, {"size": "-4"}, {"size": "-6"}, {"size": "128"}]}, {"dim": [{"size": "1"}, {"size": "1"}, {"size": "128"}, {"size": "128"}]}]}}, "strides": {"list": {"i": ["1", "1", "1", "1"]}}, "use_cudnn_on_gpu": {"b": true}, "data_format": {"s": "TkhXQw=="}, "explicit_paddings": {"list": {}}, "dilations": {"list": {"i": ["1", "1", "1", "1"]}}, "num_host_args": {"i": "0"}, "num_args": {"i": "1"}, "TArgs": {"list": {"type": ["DT_FLOAT"]}}, "filter_format": {"s": "SFdJTw=="}, "fused_ops": {"list": {"s": ["Qmlhc0FkZA==", "UmVsdQ=="]}}, "T": {"type": "DT_FLOAT"}, "epsilon": {"f": 0.0}, "leakyrelu_alpha": {"f": 0.2}, "padding": {"s": "VkFMSUQ="}}}, {"name": "StatefulPartitionedCall/functional_1/conv2_block3_2_conv_1/convolution", "op": "Conv2D", "input": ["StatefulPartitionedCall/functional_1/conv2_block3_1_relu_1/Relu", "StatefulPartitionedCall/functional_1/conv2_block3_2_conv_1/convolution/ReadVariableOp"], "device": "/device:CPU:0", "attr": {"_input_shapes": {"list": {"shape": [{"dim": [{"size": "-2"}, {"size": "-4"}, {"size": "-6"}, {"size": "-209"}]}, {"dim": [{"size": "3"}, {"size": "3"}, {"size": "128"}, {"size": "32"}]}]}}, "strides": {"list": {"i": ["1", "1", "1", "1"]}}, "use_cudnn_on_gpu": {"b": true}, "data_format": {"s": "TkhXQw=="}, "T": {"type": "DT_FLOAT"}, "dilations": {"list": {"i": ["1", "1", "1", "1"]}}, "explicit_paddings": {"list": {}}, "padding": {"s": "U0FNRQ=="}}}, {"name": "StatefulPartitionedCall/functional_1/conv2_block3_concat_1/concat", "op": "ConcatV2", "input": ["StatefulPartitionedCall/functional_1/conv2_block2_concat_1/concat", "StatefulPartitionedCall/functional_1/conv2_block3_2_conv_1/convolution", "StatefulPartitionedCall/functional_1/conv2_block3_concat_1/concat/axis"], "attr": {"Tidx": {"type": "DT_INT32"}, "T": {"type": "DT_FLOAT"}, "N": {"i": "2"}}}, {"name": "StatefulPartitionedCall/functional_1/conv2_block4_0_bn_1/batchnorm/mul_1", "op": "Mul", "input": ["StatefulPartitionedCall/functional_1/conv2_block3_concat_1/concat", "StatefulPartitionedCall/functional_1/conv2_block4_0_bn_1/batchnorm/mul"], "attr": {"T": {"type": "DT_FLOAT"}}}, {"name": "StatefulPartitionedCall/functional_1/conv2_block4_0_bn_1/batchnorm/add_1", "op": "AddV2", "input": ["StatefulPartitionedCall/functional_1/conv2_block4_0_bn_1/batchnorm/mul_1", "StatefulPartitionedCall/functional_1/conv2_block4_0_bn_1/batchnorm/sub"], "attr": {"T": {"type": "DT_FLOAT"}}}, {"name": "StatefulPartitionedCall/functional_1/conv2_block4_0_relu_1/Relu", "op": "Relu", "input": ["StatefulPartitionedCall/functional_1/conv2_block4_0_bn_1/batchnorm/add_1"], "attr": {"T": {"type": "DT_FLOAT"}}}, {"name": "StatefulPartitionedCall/functional_1/conv2_block4_1_relu_1/Relu", "op": "_FusedConv2D", "input": ["StatefulPartitionedCall/functional_1/conv2_block4_0_relu_1/Relu", "StatefulPartitionedCall/functional_1/conv2_block4_1_conv_1/convolution/merged_input", "StatefulPartitionedCall/functional_1/conv2_block4_1_bn_1/batchnorm/sub"], "device": "/device:CPU:0", "attr": {"_input_shapes": {"list": {"shape": [{"dim": [{"size": "-2"}, {"size": "-4"}, {"size": "-6"}, {"size": "160"}]}, {"dim": [{"size": "1"}, {"size": "1"}, {"size": "160"}, {"size": "128"}]}]}}, "strides": {"list": {"i": ["1", "1", "1", "1"]}}, "use_cudnn_on_gpu": {"b": true}, "data_format": {"s": "TkhXQw=="}, "explicit_paddings": {"list": {}}, "dilations": {"list": {"i": ["1", "1", "1", "1"]}}, "num_host_args": {"i": "0"}, "num_args": {"i": "1"}, "TArgs": {"list": {"type": ["DT_FLOAT"]}}, "filter_format": {"s": "SFdJTw=="}, "fused_ops": {"list": {"s": ["Qmlhc0FkZA==", "UmVsdQ=="]}}, "T": {"type": "DT_FLOAT"}, "epsilon": {"f": 0.0}, "leakyrelu_alpha": {"f": 0.2}, "padding": {"s": "VkFMSUQ="}}}, {"name": "StatefulPartitionedCall/functional_1/conv2_block4_2_conv_1/convolution", "op": "Conv2D", "input": ["StatefulPartitionedCall/functional_1/conv2_block4_1_relu_1/Relu", "StatefulPartitionedCall/functional_1/conv2_block4_2_conv_1/convolution/ReadVariableOp"], "device": "/device:CPU:0", "attr": {"_input_shapes": {"list": {"shape": [{"dim": [{"size": "-2"}, {"size": "-4"}, {"size": "-6"}, {"size": "-213"}]}, {"dim": [{"size": "3"}, {"size": "3"}, {"size": "128"}, {"size": "32"}]}]}}, "strides": {"list": {"i": ["1", "1", "1", "1"]}}, "use_cudnn_on_gpu": {"b": true}, "data_format": {"s": "TkhXQw=="}, "explicit_paddings": {"list": {}}, "dilations": {"list": {"i": ["1", "1", "1", "1"]}}, "T": {"type": "DT_FLOAT"}, "padding": {"s": "U0FNRQ=="}}}, {"name": "StatefulPartitionedCall/functional_1/conv2_block4_concat_1/concat", "op": "ConcatV2", "input": ["StatefulPartitionedCall/functional_1/conv2_block3_concat_1/concat", "StatefulPartitionedCall/functional_1/conv2_block4_2_conv_1/convolution", "StatefulPartitionedCall/functional_1/conv2_block4_concat_1/concat/axis"], "attr": {"Tidx": {"type": "DT_INT32"}, "T": {"type": "DT_FLOAT"}, "N": {"i": "2"}}}, {"name": "StatefulPartitionedCall/functional_1/conv2_block5_0_bn_1/batchnorm/mul_1", "op": "Mul", "input": ["StatefulPartitionedCall/functional_1/conv2_block4_concat_1/concat", "StatefulPartitionedCall/functional_1/conv2_block5_0_bn_1/batchnorm/mul"], "attr": {"T": {"type": "DT_FLOAT"}}}, {"name": "StatefulPartitionedCall/functional_1/conv2_block5_0_bn_1/batchnorm/add_1", "op": "AddV2", "input": ["StatefulPartitionedCall/functional_1/conv2_block5_0_bn_1/batchnorm/mul_1", "StatefulPartitionedCall/functional_1/conv2_block5_0_bn_1/batchnorm/sub"], "attr": {"T": {"type": "DT_FLOAT"}}}, {"name": "StatefulPartitionedCall/functional_1/conv2_block5_0_relu_1/Relu", "op": "Relu", "input": ["StatefulPartitionedCall/functional_1/conv2_block5_0_bn_1/batchnorm/add_1"], "attr": {"T": {"type": "DT_FLOAT"}}}, {"name": "StatefulPartitionedCall/functional_1/conv2_block5_1_relu_1/Relu", "op": "_FusedConv2D", "input": ["StatefulPartitionedCall/functional_1/conv2_block5_0_relu_1/Relu", "StatefulPartitionedCall/functional_1/conv2_block5_1_conv_1/convolution/merged_input", "StatefulPartitionedCall/functional_1/conv2_block5_1_bn_1/batchnorm/sub"], "device": "/device:CPU:0", "attr": {"_input_shapes": {"list": {"shape": [{"dim": [{"size": "-2"}, {"size": "-4"}, {"size": "-6"}, {"size": "192"}]}, {"dim": [{"size": "1"}, {"size": "1"}, {"size": "192"}, {"size": "128"}]}]}}, "strides": {"list": {"i": ["1", "1", "1", "1"]}}, "use_cudnn_on_gpu": {"b": true}, "data_format": {"s": "TkhXQw=="}, "explicit_paddings": {"list": {}}, "dilations": {"list": {"i": ["1", "1", "1", "1"]}}, "num_host_args": {"i": "0"}, "num_args": {"i": "1"}, "TArgs": {"list": {"type": ["DT_FLOAT"]}}, "filter_format": {"s": "SFdJTw=="}, "fused_ops": {"list": {"s": ["Qmlhc0FkZA==", "UmVsdQ=="]}}, "T": {"type": "DT_FLOAT"}, "epsilon": {"f": 0.0}, "leakyrelu_alpha": {"f": 0.2}, "padding": {"s": "VkFMSUQ="}}}, {"name": "StatefulPartitionedCall/functional_1/conv2_block5_2_conv_1/convolution", "op": "Conv2D", "input": ["StatefulPartitionedCall/functional_1/conv2_block5_1_relu_1/Relu", "StatefulPartitionedCall/functional_1/conv2_block5_2_conv_1/convolution/ReadVariableOp"], "device": "/device:CPU:0", "attr": {"_input_shapes": {"list": {"shape": [{"dim": [{"size": "-2"}, {"size": "-4"}, {"size": "-6"}, {"size": "-217"}]}, {"dim": [{"size": "3"}, {"size": "3"}, {"size": "128"}, {"size": "32"}]}]}}, "strides": {"list": {"i": ["1", "1", "1", "1"]}}, "use_cudnn_on_gpu": {"b": true}, "data_format": {"s": "TkhXQw=="}, "T": {"type": "DT_FLOAT"}, "dilations": {"list": {"i": ["1", "1", "1", "1"]}}, "explicit_paddings": {"list": {}}, "padding": {"s": "U0FNRQ=="}}}, {"name": "StatefulPartitionedCall/functional_1/conv2_block5_concat_1/concat", "op": "ConcatV2", "input": ["StatefulPartitionedCall/functional_1/conv2_block4_concat_1/concat", "StatefulPartitionedCall/functional_1/conv2_block5_2_conv_1/convolution", "StatefulPartitionedCall/functional_1/conv2_block5_concat_1/concat/axis"], "attr": {"T": {"type": "DT_FLOAT"}, "Tidx": {"type": "DT_INT32"}, "N": {"i": "2"}}}, {"name": "StatefulPartitionedCall/functional_1/conv2_block6_0_bn_1/batchnorm/mul_1", "op": "Mul", "input": ["StatefulPartitionedCall/functional_1/conv2_block5_concat_1/concat", "StatefulPartitionedCall/functional_1/conv2_block6_0_bn_1/batchnorm/mul"], "attr": {"T": {"type": "DT_FLOAT"}}}, {"name": "StatefulPartitionedCall/functional_1/conv2_block6_0_bn_1/batchnorm/add_1", "op": "AddV2", "input": ["StatefulPartitionedCall/functional_1/conv2_block6_0_bn_1/batchnorm/mul_1", "StatefulPartitionedCall/functional_1/conv2_block6_0_bn_1/batchnorm/sub"], "attr": {"T": {"type": "DT_FLOAT"}}}, {"name": "StatefulPartitionedCall/functional_1/conv2_block6_0_relu_1/Relu", "op": "Relu", "input": ["StatefulPartitionedCall/functional_1/conv2_block6_0_bn_1/batchnorm/add_1"], "attr": {"T": {"type": "DT_FLOAT"}}}, {"name": "StatefulPartitionedCall/functional_1/conv2_block6_1_relu_1/Relu", "op": "_FusedConv2D", "input": ["StatefulPartitionedCall/functional_1/conv2_block6_0_relu_1/Relu", "StatefulPartitionedCall/functional_1/conv2_block6_1_conv_1/convolution/merged_input", "StatefulPartitionedCall/functional_1/conv2_block6_1_bn_1/batchnorm/sub"], "device": "/device:CPU:0", "attr": {"_input_shapes": {"list": {"shape": [{"dim": [{"size": "-2"}, {"size": "-4"}, {"size": "-6"}, {"size": "224"}]}, {"dim": [{"size": "1"}, {"size": "1"}, {"size": "224"}, {"size": "128"}]}]}}, "strides": {"list": {"i": ["1", "1", "1", "1"]}}, "use_cudnn_on_gpu": {"b": true}, "data_format": {"s": "TkhXQw=="}, "explicit_paddings": {"list": {}}, "dilations": {"list": {"i": ["1", "1", "1", "1"]}}, "num_host_args": {"i": "0"}, "TArgs": {"list": {"type": ["DT_FLOAT"]}}, "num_args": {"i": "1"}, "filter_format": {"s": "SFdJTw=="}, "fused_ops": {"list": {"s": ["Qmlhc0FkZA==", "UmVsdQ=="]}}, "T": {"type": "DT_FLOAT"}, "epsilon": {"f": 0.0}, "leakyrelu_alpha": {"f": 0.2}, "padding": {"s": "VkFMSUQ="}}}, {"name": "StatefulPartitionedCall/functional_1/conv2_block6_2_conv_1/convolution", "op": "Conv2D", "input": ["StatefulPartitionedCall/functional_1/conv2_block6_1_relu_1/Relu", "StatefulPartitionedCall/functional_1/conv2_block6_2_conv_1/convolution/ReadVariableOp"], "device": "/device:CPU:0", "attr": {"_input_shapes": {"list": {"shape": [{"dim": [{"size": "-2"}, {"size": "-4"}, {"size": "-6"}, {"size": "-221"}]}, {"dim": [{"size": "3"}, {"size": "3"}, {"size": "128"}, {"size": "32"}]}]}}, "strides": {"list": {"i": ["1", "1", "1", "1"]}}, "use_cudnn_on_gpu": {"b": true}, "data_format": {"s": "TkhXQw=="}, "explicit_paddings": {"list": {}}, "dilations": {"list": {"i": ["1", "1", "1", "1"]}}, "T": {"type": "DT_FLOAT"}, "padding": {"s": "U0FNRQ=="}}}, {"name": "StatefulPartitionedCall/functional_1/conv2_block6_concat_1/concat", "op": "ConcatV2", "input": ["StatefulPartitionedCall/functional_1/conv2_block5_concat_1/concat", "StatefulPartitionedCall/functional_1/conv2_block6_2_conv_1/convolution", "StatefulPartitionedCall/functional_1/conv2_block6_concat_1/concat/axis"], "attr": {"Tidx": {"type": "DT_INT32"}, "T": {"type": "DT_FLOAT"}, "N": {"i": "2"}}}, {"name": "StatefulPartitionedCall/functional_1/pool2_bn_1/batchnorm/mul_1", "op": "Mul", "input": ["StatefulPartitionedCall/functional_1/conv2_block6_concat_1/concat", "StatefulPartitionedCall/functional_1/pool2_bn_1/batchnorm/mul"], "attr": {"T": {"type": "DT_FLOAT"}}}, {"name": "StatefulPartitionedCall/functional_1/pool2_bn_1/batchnorm/add_1", "op": "AddV2", "input": ["StatefulPartitionedCall/functional_1/pool2_bn_1/batchnorm/mul_1", "StatefulPartitionedCall/functional_1/pool2_bn_1/batchnorm/sub"], "attr": {"T": {"type": "DT_FLOAT"}}}, {"name": "StatefulPartitionedCall/functional_1/pool2_relu_1/Relu", "op": "Relu", "input": ["StatefulPartitionedCall/functional_1/pool2_bn_1/batchnorm/add_1"], "attr": {"T": {"type": "DT_FLOAT"}}}, {"name": "StatefulPartitionedCall/functional_1/pool2_conv_1/convolution", "op": "Conv2D", "input": ["StatefulPartitionedCall/functional_1/pool2_relu_1/Relu", "StatefulPartitionedCall/functional_1/pool2_conv_1/convolution/ReadVariableOp"], "device": "/device:CPU:0", "attr": {"_input_shapes": {"list": {"shape": [{"dim": [{"size": "-2"}, {"size": "-4"}, {"size": "-6"}, {"size": "256"}]}, {"dim": [{"size": "1"}, {"size": "1"}, {"size": "256"}, {"size": "128"}]}]}}, "strides": {"list": {"i": ["1", "1", "1", "1"]}}, "use_cudnn_on_gpu": {"b": true}, "data_format": {"s": "TkhXQw=="}, "explicit_paddings": {"list": {}}, "dilations": {"list": {"i": ["1", "1", "1", "1"]}}, "T": {"type": "DT_FLOAT"}, "padding": {"s": "VkFMSUQ="}}}, {"name": "StatefulPartitionedCall/functional_1/pool2_pool_1/AvgPool", "op": "AvgPool", "input": ["StatefulPartitionedCall/functional_1/pool2_conv_1/convolution"], "attr": {"strides": {"list": {"i": ["1", "2", "2", "1"]}}, "ksize": {"list": {"i": ["1", "2", "2", "1"]}}, "data_format": {"s": "TkhXQw=="}, "T": {"type": "DT_FLOAT"}, "padding": {"s": "VkFMSUQ="}}}, {"name": "StatefulPartitionedCall/functional_1/conv3_block1_0_bn_1/batchnorm/mul_1", "op": "Mul", "input": ["StatefulPartitionedCall/functional_1/pool2_pool_1/AvgPool", "StatefulPartitionedCall/functional_1/conv3_block1_0_bn_1/batchnorm/mul"], "attr": {"T": {"type": "DT_FLOAT"}}}, {"name": "StatefulPartitionedCall/functional_1/conv3_block1_0_bn_1/batchnorm/add_1", "op": "AddV2", "input": ["StatefulPartitionedCall/functional_1/conv3_block1_0_bn_1/batchnorm/mul_1", "StatefulPartitionedCall/functional_1/conv3_block1_0_bn_1/batchnorm/sub"], "attr": {"T": {"type": "DT_FLOAT"}}}, {"name": "StatefulPartitionedCall/functional_1/conv3_block1_0_relu_1/Relu", "op": "Relu", "input": ["StatefulPartitionedCall/functional_1/conv3_block1_0_bn_1/batchnorm/add_1"], "attr": {"T": {"type": "DT_FLOAT"}}}, {"name": "StatefulPartitionedCall/functional_1/conv3_block1_1_relu_1/Relu", "op": "_FusedConv2D", "input": ["StatefulPartitionedCall/functional_1/conv3_block1_0_relu_1/Relu", "StatefulPartitionedCall/functional_1/conv3_block1_1_conv_1/convolution/merged_input", "StatefulPartitionedCall/functional_1/conv3_block1_1_bn_1/batchnorm/sub"], "device": "/device:CPU:0", "attr": {"_input_shapes": {"list": {"shape": [{"dim": [{"size": "-2"}, {"size": "-24"}, {"size": "-26"}, {"size": "128"}]}, {"dim": [{"size": "1"}, {"size": "1"}, {"size": "128"}, {"size": "128"}]}]}}, "strides": {"list": {"i": ["1", "1", "1", "1"]}}, "use_cudnn_on_gpu": {"b": true}, "num_host_args": {"i": "0"}, "explicit_paddings": {"list": {}}, "dilations": {"list": {"i": ["1", "1", "1", "1"]}}, "data_format": {"s": "TkhXQw=="}, "TArgs": {"list": {"type": ["DT_FLOAT"]}}, "num_args": {"i": "1"}, "filter_format": {"s": "SFdJTw=="}, "fused_ops": {"list": {"s": ["Qmlhc0FkZA==", "UmVsdQ=="]}}, "T": {"type": "DT_FLOAT"}, "epsilon": {"f": 0.0}, "leakyrelu_alpha": {"f": 0.2}, "padding": {"s": "VkFMSUQ="}}}, {"name": "StatefulPartitionedCall/functional_1/conv3_block1_2_conv_1/convolution", "op": "Conv2D", "input": ["StatefulPartitionedCall/functional_1/conv3_block1_1_relu_1/Relu", "StatefulPartitionedCall/functional_1/conv3_block1_2_conv_1/convolution/ReadVariableOp"], "device": "/device:CPU:0", "attr": {"_input_shapes": {"list": {"shape": [{"dim": [{"size": "-2"}, {"size": "-24"}, {"size": "-26"}, {"size": "-227"}]}, {"dim": [{"size": "3"}, {"size": "3"}, {"size": "128"}, {"size": "32"}]}]}}, "strides": {"list": {"i": ["1", "1", "1", "1"]}}, "use_cudnn_on_gpu": {"b": true}, "data_format": {"s": "TkhXQw=="}, "T": {"type": "DT_FLOAT"}, "dilations": {"list": {"i": ["1", "1", "1", "1"]}}, "explicit_paddings": {"list": {}}, "padding": {"s": "U0FNRQ=="}}}, {"name": "StatefulPartitionedCall/functional_1/conv3_block1_concat_1/concat", "op": "ConcatV2", "input": ["StatefulPartitionedCall/functional_1/pool2_pool_1/AvgPool", "StatefulPartitionedCall/functional_1/conv3_block1_2_conv_1/convolution", "StatefulPartitionedCall/functional_1/conv3_block1_concat_1/concat/axis"], "attr": {"Tidx": {"type": "DT_INT32"}, "T": {"type": "DT_FLOAT"}, "N": {"i": "2"}}}, {"name": "StatefulPartitionedCall/functional_1/conv3_block2_0_bn_1/batchnorm/mul_1", "op": "Mul", "input": ["StatefulPartitionedCall/functional_1/conv3_block1_concat_1/concat", "StatefulPartitionedCall/functional_1/conv3_block2_0_bn_1/batchnorm/mul"], "attr": {"T": {"type": "DT_FLOAT"}}}, {"name": "StatefulPartitionedCall/functional_1/conv3_block2_0_bn_1/batchnorm/add_1", "op": "AddV2", "input": ["StatefulPartitionedCall/functional_1/conv3_block2_0_bn_1/batchnorm/mul_1", "StatefulPartitionedCall/functional_1/conv3_block2_0_bn_1/batchnorm/sub"], "attr": {"T": {"type": "DT_FLOAT"}}}, {"name": "StatefulPartitionedCall/functional_1/conv3_block2_0_relu_1/Relu", "op": "Relu", "input": ["StatefulPartitionedCall/functional_1/conv3_block2_0_bn_1/batchnorm/add_1"], "attr": {"T": {"type": "DT_FLOAT"}}}, {"name": "StatefulPartitionedCall/functional_1/conv3_block2_1_relu_1/Relu", "op": "_FusedConv2D", "input": ["StatefulPartitionedCall/functional_1/conv3_block2_0_relu_1/Relu", "StatefulPartitionedCall/functional_1/conv3_block2_1_conv_1/convolution/merged_input", "StatefulPartitionedCall/functional_1/conv3_block2_1_bn_1/batchnorm/sub"], "device": "/device:CPU:0", "attr": {"_input_shapes": {"list": {"shape": [{"dim": [{"size": "-2"}, {"size": "-24"}, {"size": "-26"}, {"size": "160"}]}, {"dim": [{"size": "1"}, {"size": "1"}, {"size": "160"}, {"size": "128"}]}]}}, "strides": {"list": {"i": ["1", "1", "1", "1"]}}, "use_cudnn_on_gpu": {"b": true}, "data_format": {"s": "TkhXQw=="}, "explicit_paddings": {"list": {}}, "dilations": {"list": {"i": ["1", "1", "1", "1"]}}, "num_host_args": {"i": "0"}, "num_args": {"i": "1"}, "TArgs": {"list": {"type": ["DT_FLOAT"]}}, "filter_format": {"s": "SFdJTw=="}, "fused_ops": {"list": {"s": ["Qmlhc0FkZA==", "UmVsdQ=="]}}, "T": {"type": "DT_FLOAT"}, "epsilon": {"f": 0.0}, "leakyrelu_alpha": {"f": 0.2}, "padding": {"s": "VkFMSUQ="}}}, {"name": "StatefulPartitionedCall/functional_1/conv3_block2_2_conv_1/convolution", "op": "Conv2D", "input": ["StatefulPartitionedCall/functional_1/conv3_block2_1_relu_1/Relu", "StatefulPartitionedCall/functional_1/conv3_block2_2_conv_1/convolution/ReadVariableOp"], "device": "/device:CPU:0", "attr": {"_input_shapes": {"list": {"shape": [{"dim": [{"size": "-2"}, {"size": "-24"}, {"size": "-26"}, {"size": "-230"}]}, {"dim": [{"size": "3"}, {"size": "3"}, {"size": "128"}, {"size": "32"}]}]}}, "strides": {"list": {"i": ["1", "1", "1", "1"]}}, "use_cudnn_on_gpu": {"b": true}, "data_format": {"s": "TkhXQw=="}, "explicit_paddings": {"list": {}}, "dilations": {"list": {"i": ["1", "1", "1", "1"]}}, "T": {"type": "DT_FLOAT"}, "padding": {"s": "U0FNRQ=="}}}, {"name": "StatefulPartitionedCall/functional_1/conv3_block2_concat_1/concat", "op": "ConcatV2", "input": ["StatefulPartitionedCall/functional_1/conv3_block1_concat_1/concat", "StatefulPartitionedCall/functional_1/conv3_block2_2_conv_1/convolution", "StatefulPartitionedCall/functional_1/conv3_block2_concat_1/concat/axis"], "attr": {"Tidx": {"type": "DT_INT32"}, "T": {"type": "DT_FLOAT"}, "N": {"i": "2"}}}, {"name": "StatefulPartitionedCall/functional_1/conv3_block3_0_bn_1/batchnorm/mul_1", "op": "Mul", "input": ["StatefulPartitionedCall/functional_1/conv3_block2_concat_1/concat", "StatefulPartitionedCall/functional_1/conv3_block3_0_bn_1/batchnorm/mul"], "attr": {"T": {"type": "DT_FLOAT"}}}, {"name": "StatefulPartitionedCall/functional_1/conv3_block3_0_bn_1/batchnorm/add_1", "op": "AddV2", "input": ["StatefulPartitionedCall/functional_1/conv3_block3_0_bn_1/batchnorm/mul_1", "StatefulPartitionedCall/functional_1/conv3_block3_0_bn_1/batchnorm/sub"], "attr": {"T": {"type": "DT_FLOAT"}}}, {"name": "StatefulPartitionedCall/functional_1/conv3_block3_0_relu_1/Relu", "op": "Relu", "input": ["StatefulPartitionedCall/functional_1/conv3_block3_0_bn_1/batchnorm/add_1"], "attr": {"T": {"type": "DT_FLOAT"}}}, {"name": "StatefulPartitionedCall/functional_1/conv3_block3_1_relu_1/Relu", "op": "_FusedConv2D", "input": ["StatefulPartitionedCall/functional_1/conv3_block3_0_relu_1/Relu", "StatefulPartitionedCall/functional_1/conv3_block3_1_conv_1/convolution/merged_input", "StatefulPartitionedCall/functional_1/conv3_block3_1_bn_1/batchnorm/sub"], "device": "/device:CPU:0", "attr": {"_input_shapes": {"list": {"shape": [{"dim": [{"size": "-2"}, {"size": "-24"}, {"size": "-26"}, {"size": "192"}]}, {"dim": [{"size": "1"}, {"size": "1"}, {"size": "192"}, {"size": "128"}]}]}}, "strides": {"list": {"i": ["1", "1", "1", "1"]}}, "use_cudnn_on_gpu": {"b": true}, "num_host_args": {"i": "0"}, "explicit_paddings": {"list": {}}, "dilations": {"list": {"i": ["1", "1", "1", "1"]}}, "data_format": {"s": "TkhXQw=="}, "TArgs": {"list": {"type": ["DT_FLOAT"]}}, "num_args": {"i": "1"}, "filter_format": {"s": "SFdJTw=="}, "fused_ops": {"list": {"s": ["Qmlhc0FkZA==", "UmVsdQ=="]}}, "T": {"type": "DT_FLOAT"}, "epsilon": {"f": 0.0}, "leakyrelu_alpha": {"f": 0.2}, "padding": {"s": "VkFMSUQ="}}}, {"name": "StatefulPartitionedCall/functional_1/conv3_block3_2_conv_1/convolution", "op": "Conv2D", "input": ["StatefulPartitionedCall/functional_1/conv3_block3_1_relu_1/Relu", "StatefulPartitionedCall/functional_1/conv3_block3_2_conv_1/convolution/ReadVariableOp"], "device": "/device:CPU:0", "attr": {"_input_shapes": {"list": {"shape": [{"dim": [{"size": "-2"}, {"size": "-24"}, {"size": "-26"}, {"size": "-233"}]}, {"dim": [{"size": "3"}, {"size": "3"}, {"size": "128"}, {"size": "32"}]}]}}, "strides": {"list": {"i": ["1", "1", "1", "1"]}}, "use_cudnn_on_gpu": {"b": true}, "data_format": {"s": "TkhXQw=="}, "explicit_paddings": {"list": {}}, "dilations": {"list": {"i": ["1", "1", "1", "1"]}}, "T": {"type": "DT_FLOAT"}, "padding": {"s": "U0FNRQ=="}}}, {"name": "StatefulPartitionedCall/functional_1/conv3_block3_concat_1/concat", "op": "ConcatV2", "input": ["StatefulPartitionedCall/functional_1/conv3_block2_concat_1/concat", "StatefulPartitionedCall/functional_1/conv3_block3_2_conv_1/convolution", "StatefulPartitionedCall/functional_1/conv3_block3_concat_1/concat/axis"], "attr": {"T": {"type": "DT_FLOAT"}, "Tidx": {"type": "DT_INT32"}, "N": {"i": "2"}}}, {"name": "StatefulPartitionedCall/functional_1/conv3_block4_0_bn_1/batchnorm/mul_1", "op": "Mul", "input": ["StatefulPartitionedCall/functional_1/conv3_block3_concat_1/concat", "StatefulPartitionedCall/functional_1/conv3_block4_0_bn_1/batchnorm/mul"], "attr": {"T": {"type": "DT_FLOAT"}}}, {"name": "StatefulPartitionedCall/functional_1/conv3_block4_0_bn_1/batchnorm/add_1", "op": "AddV2", "input": ["StatefulPartitionedCall/functional_1/conv3_block4_0_bn_1/batchnorm/mul_1", "StatefulPartitionedCall/functional_1/conv3_block4_0_bn_1/batchnorm/sub"], "attr": {"T": {"type": "DT_FLOAT"}}}, {"name": "StatefulPartitionedCall/functional_1/conv3_block4_0_relu_1/Relu", "op": "Relu", "input": ["StatefulPartitionedCall/functional_1/conv3_block4_0_bn_1/batchnorm/add_1"], "attr": {"T": {"type": "DT_FLOAT"}}}, {"name": "StatefulPartitionedCall/functional_1/conv3_block4_1_relu_1/Relu", "op": "_FusedConv2D", "input": ["StatefulPartitionedCall/functional_1/conv3_block4_0_relu_1/Relu", "StatefulPartitionedCall/functional_1/conv3_block4_1_conv_1/convolution/merged_input", "StatefulPartitionedCall/functional_1/conv3_block4_1_bn_1/batchnorm/sub"], "device": "/device:CPU:0", "attr": {"_input_shapes": {"list": {"shape": [{"dim": [{"size": "-2"}, {"size": "-24"}, {"size": "-26"}, {"size": "224"}]}, {"dim": [{"size": "1"}, {"size": "1"}, {"size": "224"}, {"size": "128"}]}]}}, "strides": {"list": {"i": ["1", "1", "1", "1"]}}, "use_cudnn_on_gpu": {"b": true}, "num_host_args": {"i": "0"}, "explicit_paddings": {"list": {}}, "dilations": {"list": {"i": ["1", "1", "1", "1"]}}, "data_format": {"s": "TkhXQw=="}, "num_args": {"i": "1"}, "TArgs": {"list": {"type": ["DT_FLOAT"]}}, "filter_format": {"s": "SFdJTw=="}, "fused_ops": {"list": {"s": ["Qmlhc0FkZA==", "UmVsdQ=="]}}, "T": {"type": "DT_FLOAT"}, "epsilon": {"f": 0.0}, "leakyrelu_alpha": {"f": 0.2}, "padding": {"s": "VkFMSUQ="}}}, {"name": "StatefulPartitionedCall/functional_1/conv3_block4_2_conv_1/convolution", "op": "Conv2D", "input": ["StatefulPartitionedCall/functional_1/conv3_block4_1_relu_1/Relu", "StatefulPartitionedCall/functional_1/conv3_block4_2_conv_1/convolution/ReadVariableOp"], "device": "/device:CPU:0", "attr": {"_input_shapes": {"list": {"shape": [{"dim": [{"size": "-2"}, {"size": "-24"}, {"size": "-26"}, {"size": "-236"}]}, {"dim": [{"size": "3"}, {"size": "3"}, {"size": "128"}, {"size": "32"}]}]}}, "strides": {"list": {"i": ["1", "1", "1", "1"]}}, "use_cudnn_on_gpu": {"b": true}, "data_format": {"s": "TkhXQw=="}, "T": {"type": "DT_FLOAT"}, "dilations": {"list": {"i": ["1", "1", "1", "1"]}}, "explicit_paddings": {"list": {}}, "padding": {"s": "U0FNRQ=="}}}, {"name": "StatefulPartitionedCall/functional_1/conv3_block4_concat_1/concat", "op": "ConcatV2", "input": ["StatefulPartitionedCall/functional_1/conv3_block3_concat_1/concat", "StatefulPartitionedCall/functional_1/conv3_block4_2_conv_1/convolution", "StatefulPartitionedCall/functional_1/conv3_block4_concat_1/concat/axis"], "attr": {"Tidx": {"type": "DT_INT32"}, "T": {"type": "DT_FLOAT"}, "N": {"i": "2"}}}, {"name": "StatefulPartitionedCall/functional_1/conv3_block5_0_bn_1/batchnorm/mul_1", "op": "Mul", "input": ["StatefulPartitionedCall/functional_1/conv3_block4_concat_1/concat", "StatefulPartitionedCall/functional_1/conv3_block5_0_bn_1/batchnorm/mul"], "attr": {"T": {"type": "DT_FLOAT"}}}, {"name": "StatefulPartitionedCall/functional_1/conv3_block5_0_bn_1/batchnorm/add_1", "op": "AddV2", "input": ["StatefulPartitionedCall/functional_1/conv3_block5_0_bn_1/batchnorm/mul_1", "StatefulPartitionedCall/functional_1/conv3_block5_0_bn_1/batchnorm/sub"], "attr": {"T": {"type": "DT_FLOAT"}}}, {"name": "StatefulPartitionedCall/functional_1/conv3_block5_0_relu_1/Relu", "op": "Relu", "input": ["StatefulPartitionedCall/functional_1/conv3_block5_0_bn_1/batchnorm/add_1"], "attr": {"T": {"type": "DT_FLOAT"}}}, {"name": "StatefulPartitionedCall/functional_1/conv3_block5_1_relu_1/Relu", "op": "_FusedConv2D", "input": ["StatefulPartitionedCall/functional_1/conv3_block5_0_relu_1/Relu", "StatefulPartitionedCall/functional_1/conv3_block5_1_conv_1/convolution/merged_input", "StatefulPartitionedCall/functional_1/conv3_block5_1_bn_1/batchnorm/sub"], "device": "/device:CPU:0", "attr": {"_input_shapes": {"list": {"shape": [{"dim": [{"size": "-2"}, {"size": "-24"}, {"size": "-26"}, {"size": "256"}]}, {"dim": [{"size": "1"}, {"size": "1"}, {"size": "256"}, {"size": "128"}]}]}}, "strides": {"list": {"i": ["1", "1", "1", "1"]}}, "use_cudnn_on_gpu": {"b": true}, "num_host_args": {"i": "0"}, "explicit_paddings": {"list": {}}, "dilations": {"list": {"i": ["1", "1", "1", "1"]}}, "data_format": {"s": "TkhXQw=="}, "num_args": {"i": "1"}, "TArgs": {"list": {"type": ["DT_FLOAT"]}}, "filter_format": {"s": "SFdJTw=="}, "fused_ops": {"list": {"s": ["Qmlhc0FkZA==", "UmVsdQ=="]}}, "T": {"type": "DT_FLOAT"}, "epsilon": {"f": 0.0}, "leakyrelu_alpha": {"f": 0.2}, "padding": {"s": "VkFMSUQ="}}}, {"name": "StatefulPartitionedCall/functional_1/conv3_block5_2_conv_1/convolution", "op": "Conv2D", "input": ["StatefulPartitionedCall/functional_1/conv3_block5_1_relu_1/Relu", "StatefulPartitionedCall/functional_1/conv3_block5_2_conv_1/convolution/ReadVariableOp"], "device": "/device:CPU:0", "attr": {"_input_shapes": {"list": {"shape": [{"dim": [{"size": "-2"}, {"size": "-24"}, {"size": "-26"}, {"size": "-239"}]}, {"dim": [{"size": "3"}, {"size": "3"}, {"size": "128"}, {"size": "32"}]}]}}, "strides": {"list": {"i": ["1", "1", "1", "1"]}}, "use_cudnn_on_gpu": {"b": true}, "data_format": {"s": "TkhXQw=="}, "explicit_paddings": {"list": {}}, "dilations": {"list": {"i": ["1", "1", "1", "1"]}}, "T": {"type": "DT_FLOAT"}, "padding": {"s": "U0FNRQ=="}}}, {"name": "StatefulPartitionedCall/functional_1/conv3_block5_concat_1/concat", "op": "ConcatV2", "input": ["StatefulPartitionedCall/functional_1/conv3_block4_concat_1/concat", "StatefulPartitionedCall/functional_1/conv3_block5_2_conv_1/convolution", "StatefulPartitionedCall/functional_1/conv3_block5_concat_1/concat/axis"], "attr": {"Tidx": {"type": "DT_INT32"}, "T": {"type": "DT_FLOAT"}, "N": {"i": "2"}}}, {"name": "StatefulPartitionedCall/functional_1/conv3_block6_0_bn_1/batchnorm/mul_1", "op": "Mul", "input": ["StatefulPartitionedCall/functional_1/conv3_block5_concat_1/concat", "StatefulPartitionedCall/functional_1/conv3_block6_0_bn_1/batchnorm/mul"], "attr": {"T": {"type": "DT_FLOAT"}}}, {"name": "StatefulPartitionedCall/functional_1/conv3_block6_0_bn_1/batchnorm/add_1", "op": "AddV2", "input": ["StatefulPartitionedCall/functional_1/conv3_block6_0_bn_1/batchnorm/mul_1", "StatefulPartitionedCall/functional_1/conv3_block6_0_bn_1/batchnorm/sub"], "attr": {"T": {"type": "DT_FLOAT"}}}, {"name": "StatefulPartitionedCall/functional_1/conv3_block6_0_relu_1/Relu", "op": "Relu", "input": ["StatefulPartitionedCall/functional_1/conv3_block6_0_bn_1/batchnorm/add_1"], "attr": {"T": {"type": "DT_FLOAT"}}}, {"name": "StatefulPartitionedCall/functional_1/conv3_block6_1_relu_1/Relu", "op": "_FusedConv2D", "input": ["StatefulPartitionedCall/functional_1/conv3_block6_0_relu_1/Relu", "StatefulPartitionedCall/functional_1/conv3_block6_1_conv_1/convolution/merged_input", "StatefulPartitionedCall/functional_1/conv3_block6_1_bn_1/batchnorm/sub"], "device": "/device:CPU:0", "attr": {"_input_shapes": {"list": {"shape": [{"dim": [{"size": "-2"}, {"size": "-24"}, {"size": "-26"}, {"size": "288"}]}, {"dim": [{"size": "1"}, {"size": "1"}, {"size": "288"}, {"size": "128"}]}]}}, "strides": {"list": {"i": ["1", "1", "1", "1"]}}, "use_cudnn_on_gpu": {"b": true}, "data_format": {"s": "TkhXQw=="}, "explicit_paddings": {"list": {}}, "dilations": {"list": {"i": ["1", "1", "1", "1"]}}, "num_host_args": {"i": "0"}, "num_args": {"i": "1"}, "TArgs": {"list": {"type": ["DT_FLOAT"]}}, "filter_format": {"s": "SFdJTw=="}, "fused_ops": {"list": {"s": ["Qmlhc0FkZA==", "UmVsdQ=="]}}, "T": {"type": "DT_FLOAT"}, "epsilon": {"f": 0.0}, "leakyrelu_alpha": {"f": 0.2}, "padding": {"s": "VkFMSUQ="}}}, {"name": "StatefulPartitionedCall/functional_1/conv3_block6_2_conv_1/convolution", "op": "Conv2D", "input": ["StatefulPartitionedCall/functional_1/conv3_block6_1_relu_1/Relu", "StatefulPartitionedCall/functional_1/conv3_block6_2_conv_1/convolution/ReadVariableOp"], "device": "/device:CPU:0", "attr": {"_input_shapes": {"list": {"shape": [{"dim": [{"size": "-2"}, {"size": "-24"}, {"size": "-26"}, {"size": "-242"}]}, {"dim": [{"size": "3"}, {"size": "3"}, {"size": "128"}, {"size": "32"}]}]}}, "strides": {"list": {"i": ["1", "1", "1", "1"]}}, "use_cudnn_on_gpu": {"b": true}, "data_format": {"s": "TkhXQw=="}, "explicit_paddings": {"list": {}}, "dilations": {"list": {"i": ["1", "1", "1", "1"]}}, "T": {"type": "DT_FLOAT"}, "padding": {"s": "U0FNRQ=="}}}, {"name": "StatefulPartitionedCall/functional_1/conv3_block6_concat_1/concat", "op": "ConcatV2", "input": ["StatefulPartitionedCall/functional_1/conv3_block5_concat_1/concat", "StatefulPartitionedCall/functional_1/conv3_block6_2_conv_1/convolution", "StatefulPartitionedCall/functional_1/conv3_block6_concat_1/concat/axis"], "attr": {"Tidx": {"type": "DT_INT32"}, "T": {"type": "DT_FLOAT"}, "N": {"i": "2"}}}, {"name": "StatefulPartitionedCall/functional_1/conv3_block7_0_bn_1/batchnorm/mul_1", "op": "Mul", "input": ["StatefulPartitionedCall/functional_1/conv3_block6_concat_1/concat", "StatefulPartitionedCall/functional_1/conv3_block7_0_bn_1/batchnorm/mul"], "attr": {"T": {"type": "DT_FLOAT"}}}, {"name": "StatefulPartitionedCall/functional_1/conv3_block7_0_bn_1/batchnorm/add_1", "op": "AddV2", "input": ["StatefulPartitionedCall/functional_1/conv3_block7_0_bn_1/batchnorm/mul_1", "StatefulPartitionedCall/functional_1/conv3_block7_0_bn_1/batchnorm/sub"], "attr": {"T": {"type": "DT_FLOAT"}}}, {"name": "StatefulPartitionedCall/functional_1/conv3_block7_0_relu_1/Relu", "op": "Relu", "input": ["StatefulPartitionedCall/functional_1/conv3_block7_0_bn_1/batchnorm/add_1"], "attr": {"T": {"type": "DT_FLOAT"}}}, {"name": "StatefulPartitionedCall/functional_1/conv3_block7_1_relu_1/Relu", "op": "_FusedConv2D", "input": ["StatefulPartitionedCall/functional_1/conv3_block7_0_relu_1/Relu", "StatefulPartitionedCall/functional_1/conv3_block7_1_conv_1/convolution/merged_input", "StatefulPartitionedCall/functional_1/conv3_block7_1_bn_1/batchnorm/sub"], "device": "/device:CPU:0", "attr": {"_input_shapes": {"list": {"shape": [{"dim": [{"size": "-2"}, {"size": "-24"}, {"size": "-26"}, {"size": "320"}]}, {"dim": [{"size": "1"}, {"size": "1"}, {"size": "320"}, {"size": "128"}]}]}}, "strides": {"list": {"i": ["1", "1", "1", "1"]}}, "use_cudnn_on_gpu": {"b": true}, "data_format": {"s": "TkhXQw=="}, "explicit_paddings": {"list": {}}, "dilations": {"list": {"i": ["1", "1", "1", "1"]}}, "num_host_args": {"i": "0"}, "TArgs": {"list": {"type": ["DT_FLOAT"]}}, "num_args": {"i": "1"}, "filter_format": {"s": "SFdJTw=="}, "fused_ops": {"list": {"s": ["Qmlhc0FkZA==", "UmVsdQ=="]}}, "T": {"type": "DT_FLOAT"}, "epsilon": {"f": 0.0}, "leakyrelu_alpha": {"f": 0.2}, "padding": {"s": "VkFMSUQ="}}}, {"name": "StatefulPartitionedCall/functional_1/conv3_block7_2_conv_1/convolution", "op": "Conv2D", "input": ["StatefulPartitionedCall/functional_1/conv3_block7_1_relu_1/Relu", "StatefulPartitionedCall/functional_1/conv3_block7_2_conv_1/convolution/ReadVariableOp"], "device": "/device:CPU:0", "attr": {"_input_shapes": {"list": {"shape": [{"dim": [{"size": "-2"}, {"size": "-24"}, {"size": "-26"}, {"size": "-245"}]}, {"dim": [{"size": "3"}, {"size": "3"}, {"size": "128"}, {"size": "32"}]}]}}, "strides": {"list": {"i": ["1", "1", "1", "1"]}}, "use_cudnn_on_gpu": {"b": true}, "data_format": {"s": "TkhXQw=="}, "T": {"type": "DT_FLOAT"}, "dilations": {"list": {"i": ["1", "1", "1", "1"]}}, "explicit_paddings": {"list": {}}, "padding": {"s": "U0FNRQ=="}}}, {"name": "StatefulPartitionedCall/functional_1/conv3_block7_concat_1/concat", "op": "ConcatV2", "input": ["StatefulPartitionedCall/functional_1/conv3_block6_concat_1/concat", "StatefulPartitionedCall/functional_1/conv3_block7_2_conv_1/convolution", "StatefulPartitionedCall/functional_1/conv3_block7_concat_1/concat/axis"], "attr": {"T": {"type": "DT_FLOAT"}, "Tidx": {"type": "DT_INT32"}, "N": {"i": "2"}}}, {"name": "StatefulPartitionedCall/functional_1/conv3_block8_0_bn_1/batchnorm/mul_1", "op": "Mul", "input": ["StatefulPartitionedCall/functional_1/conv3_block7_concat_1/concat", "StatefulPartitionedCall/functional_1/conv3_block8_0_bn_1/batchnorm/mul"], "attr": {"T": {"type": "DT_FLOAT"}}}, {"name": "StatefulPartitionedCall/functional_1/conv3_block8_0_bn_1/batchnorm/add_1", "op": "AddV2", "input": ["StatefulPartitionedCall/functional_1/conv3_block8_0_bn_1/batchnorm/mul_1", "StatefulPartitionedCall/functional_1/conv3_block8_0_bn_1/batchnorm/sub"], "attr": {"T": {"type": "DT_FLOAT"}}}, {"name": "StatefulPartitionedCall/functional_1/conv3_block8_0_relu_1/Relu", "op": "Relu", "input": ["StatefulPartitionedCall/functional_1/conv3_block8_0_bn_1/batchnorm/add_1"], "attr": {"T": {"type": "DT_FLOAT"}}}, {"name": "StatefulPartitionedCall/functional_1/conv3_block8_1_relu_1/Relu", "op": "_FusedConv2D", "input": ["StatefulPartitionedCall/functional_1/conv3_block8_0_relu_1/Relu", "StatefulPartitionedCall/functional_1/conv3_block8_1_conv_1/convolution/merged_input", "StatefulPartitionedCall/functional_1/conv3_block8_1_bn_1/batchnorm/sub"], "device": "/device:CPU:0", "attr": {"_input_shapes": {"list": {"shape": [{"dim": [{"size": "-2"}, {"size": "-24"}, {"size": "-26"}, {"size": "352"}]}, {"dim": [{"size": "1"}, {"size": "1"}, {"size": "352"}, {"size": "128"}]}]}}, "strides": {"list": {"i": ["1", "1", "1", "1"]}}, "use_cudnn_on_gpu": {"b": true}, "num_host_args": {"i": "0"}, "explicit_paddings": {"list": {}}, "dilations": {"list": {"i": ["1", "1", "1", "1"]}}, "data_format": {"s": "TkhXQw=="}, "num_args": {"i": "1"}, "TArgs": {"list": {"type": ["DT_FLOAT"]}}, "filter_format": {"s": "SFdJTw=="}, "fused_ops": {"list": {"s": ["Qmlhc0FkZA==", "UmVsdQ=="]}}, "T": {"type": "DT_FLOAT"}, "epsilon": {"f": 0.0}, "leakyrelu_alpha": {"f": 0.2}, "padding": {"s": "VkFMSUQ="}}}, {"name": "StatefulPartitionedCall/functional_1/conv3_block8_2_conv_1/convolution", "op": "Conv2D", "input": ["StatefulPartitionedCall/functional_1/conv3_block8_1_relu_1/Relu", "StatefulPartitionedCall/functional_1/conv3_block8_2_conv_1/convolution/ReadVariableOp"], "device": "/device:CPU:0", "attr": {"_input_shapes": {"list": {"shape": [{"dim": [{"size": "-2"}, {"size": "-24"}, {"size": "-26"}, {"size": "-248"}]}, {"dim": [{"size": "3"}, {"size": "3"}, {"size": "128"}, {"size": "32"}]}]}}, "strides": {"list": {"i": ["1", "1", "1", "1"]}}, "use_cudnn_on_gpu": {"b": true}, "data_format": {"s": "TkhXQw=="}, "T": {"type": "DT_FLOAT"}, "dilations": {"list": {"i": ["1", "1", "1", "1"]}}, "explicit_paddings": {"list": {}}, "padding": {"s": "U0FNRQ=="}}}, {"name": "StatefulPartitionedCall/functional_1/conv3_block8_concat_1/concat", "op": "ConcatV2", "input": ["StatefulPartitionedCall/functional_1/conv3_block7_concat_1/concat", "StatefulPartitionedCall/functional_1/conv3_block8_2_conv_1/convolution", "StatefulPartitionedCall/functional_1/conv3_block8_concat_1/concat/axis"], "attr": {"Tidx": {"type": "DT_INT32"}, "T": {"type": "DT_FLOAT"}, "N": {"i": "2"}}}, {"name": "StatefulPartitionedCall/functional_1/conv3_block9_0_bn_1/batchnorm/mul_1", "op": "Mul", "input": ["StatefulPartitionedCall/functional_1/conv3_block8_concat_1/concat", "StatefulPartitionedCall/functional_1/conv3_block9_0_bn_1/batchnorm/mul"], "attr": {"T": {"type": "DT_FLOAT"}}}, {"name": "StatefulPartitionedCall/functional_1/conv3_block9_0_bn_1/batchnorm/add_1", "op": "AddV2", "input": ["StatefulPartitionedCall/functional_1/conv3_block9_0_bn_1/batchnorm/mul_1", "StatefulPartitionedCall/functional_1/conv3_block9_0_bn_1/batchnorm/sub"], "attr": {"T": {"type": "DT_FLOAT"}}}, {"name": "StatefulPartitionedCall/functional_1/conv3_block9_0_relu_1/Relu", "op": "Relu", "input": ["StatefulPartitionedCall/functional_1/conv3_block9_0_bn_1/batchnorm/add_1"], "attr": {"T": {"type": "DT_FLOAT"}}}, {"name": "StatefulPartitionedCall/functional_1/conv3_block9_1_relu_1/Relu", "op": "_FusedConv2D", "input": ["StatefulPartitionedCall/functional_1/conv3_block9_0_relu_1/Relu", "StatefulPartitionedCall/functional_1/conv3_block9_1_conv_1/convolution/merged_input", "StatefulPartitionedCall/functional_1/conv3_block9_1_bn_1/batchnorm/sub"], "device": "/device:CPU:0", "attr": {"_input_shapes": {"list": {"shape": [{"dim": [{"size": "-2"}, {"size": "-24"}, {"size": "-26"}, {"size": "384"}]}, {"dim": [{"size": "1"}, {"size": "1"}, {"size": "384"}, {"size": "128"}]}]}}, "strides": {"list": {"i": ["1", "1", "1", "1"]}}, "use_cudnn_on_gpu": {"b": true}, "num_host_args": {"i": "0"}, "explicit_paddings": {"list": {}}, "dilations": {"list": {"i": ["1", "1", "1", "1"]}}, "data_format": {"s": "TkhXQw=="}, "TArgs": {"list": {"type": ["DT_FLOAT"]}}, "num_args": {"i": "1"}, "filter_format": {"s": "SFdJTw=="}, "fused_ops": {"list": {"s": ["Qmlhc0FkZA==", "UmVsdQ=="]}}, "T": {"type": "DT_FLOAT"}, "epsilon": {"f": 0.0}, "leakyrelu_alpha": {"f": 0.2}, "padding": {"s": "VkFMSUQ="}}}, {"name": "StatefulPartitionedCall/functional_1/conv3_block9_2_conv_1/convolution", "op": "Conv2D", "input": ["StatefulPartitionedCall/functional_1/conv3_block9_1_relu_1/Relu", "StatefulPartitionedCall/functional_1/conv3_block9_2_conv_1/convolution/ReadVariableOp"], "device": "/device:CPU:0", "attr": {"_input_shapes": {"list": {"shape": [{"dim": [{"size": "-2"}, {"size": "-24"}, {"size": "-26"}, {"size": "-251"}]}, {"dim": [{"size": "3"}, {"size": "3"}, {"size": "128"}, {"size": "32"}]}]}}, "strides": {"list": {"i": ["1", "1", "1", "1"]}}, "use_cudnn_on_gpu": {"b": true}, "data_format": {"s": "TkhXQw=="}, "explicit_paddings": {"list": {}}, "dilations": {"list": {"i": ["1", "1", "1", "1"]}}, "T": {"type": "DT_FLOAT"}, "padding": {"s": "U0FNRQ=="}}}, {"name": "StatefulPartitionedCall/functional_1/conv3_block9_concat_1/concat", "op": "ConcatV2", "input": ["StatefulPartitionedCall/functional_1/conv3_block8_concat_1/concat", "StatefulPartitionedCall/functional_1/conv3_block9_2_conv_1/convolution", "StatefulPartitionedCall/functional_1/conv3_block9_concat_1/concat/axis"], "attr": {"T": {"type": "DT_FLOAT"}, "Tidx": {"type": "DT_INT32"}, "N": {"i": "2"}}}, {"name": "StatefulPartitionedCall/functional_1/conv3_block10_0_bn_1/batchnorm/mul_1", "op": "Mul", "input": ["StatefulPartitionedCall/functional_1/conv3_block9_concat_1/concat", "StatefulPartitionedCall/functional_1/conv3_block10_0_bn_1/batchnorm/mul"], "attr": {"T": {"type": "DT_FLOAT"}}}, {"name": "StatefulPartitionedCall/functional_1/conv3_block10_0_bn_1/batchnorm/add_1", "op": "AddV2", "input": ["StatefulPartitionedCall/functional_1/conv3_block10_0_bn_1/batchnorm/mul_1", "StatefulPartitionedCall/functional_1/conv3_block10_0_bn_1/batchnorm/sub"], "attr": {"T": {"type": "DT_FLOAT"}}}, {"name": "StatefulPartitionedCall/functional_1/conv3_block10_0_relu_1/Relu", "op": "Relu", "input": ["StatefulPartitionedCall/functional_1/conv3_block10_0_bn_1/batchnorm/add_1"], "attr": {"T": {"type": "DT_FLOAT"}}}, {"name": "StatefulPartitionedCall/functional_1/conv3_block10_1_relu_1/Relu", "op": "_FusedConv2D", "input": ["StatefulPartitionedCall/functional_1/conv3_block10_0_relu_1/Relu", "StatefulPartitionedCall/functional_1/conv3_block10_1_conv_1/convolution/merged_input", "StatefulPartitionedCall/functional_1/conv3_block10_1_bn_1/batchnorm/sub"], "device": "/device:CPU:0", "attr": {"_input_shapes": {"list": {"shape": [{"dim": [{"size": "-2"}, {"size": "-24"}, {"size": "-26"}, {"size": "416"}]}, {"dim": [{"size": "1"}, {"size": "1"}, {"size": "416"}, {"size": "128"}]}]}}, "strides": {"list": {"i": ["1", "1", "1", "1"]}}, "use_cudnn_on_gpu": {"b": true}, "num_host_args": {"i": "0"}, "explicit_paddings": {"list": {}}, "dilations": {"list": {"i": ["1", "1", "1", "1"]}}, "data_format": {"s": "TkhXQw=="}, "TArgs": {"list": {"type": ["DT_FLOAT"]}}, "num_args": {"i": "1"}, "filter_format": {"s": "SFdJTw=="}, "fused_ops": {"list": {"s": ["Qmlhc0FkZA==", "UmVsdQ=="]}}, "T": {"type": "DT…
e_a": {"b": false}}}, {"name": "StatefulPartitionedCall/functional_1/dense_1_2/BiasAdd", "op": "_FusedMatMul", "input": ["StatefulPartitionedCall/functional_1/dense_1/Relu", "StatefulPartitionedCall/functional_1/dense_1_2/Cast/ReadVariableOp", "StatefulPartitionedCall/functional_1/dense_1_2/BiasAdd/ReadVariableOp"], "device": "/device:CPU:0", "attr": {"_input_shapes": {"list": {"shape": [{"dim": [{"size": "-2"}, {"size": "256"}]}, {"dim": [{"size": "256"}, {"size": "5"}]}]}}, "fused_ops": {"list": {"s": ["Qmlhc0FkZA=="]}}, "T": {"type": "DT_FLOAT"}, "transpose_b": {"b": false}, "epsilon": {"f": 0.0}, "num_args": {"i": "1"}, "leakyrelu_alpha": {"f": 0.2}, "transpose_a": {"b": false}}}, {"name": "StatefulPartitionedCall/functional_1/dense_1_2/Softmax", "op": "Softmax", "input": ["StatefulPartitionedCall/functional_1/dense_1_2/BiasAdd"], "attr": {"T": {"type": "DT_FLOAT"}}}, {"name": "Identity", "op": "Identity", "input": ["StatefulPartitionedCall/functional_1/dense_1_2/Softmax"], "attr": {"T": {"type": "DT_FLOAT"}}}], "library": {}, "versions": {"producer": 2288}}, "weightsManifest": [{"paths": ["group1-shard1of7.bin", "group1-shard2of7.bin", "group1-shard3of7.bin", "group1-shard4of7.bin", "group1-shard5of7.bin", "group1-shard6of7.bin", "group1-shard7of7.bin"], "weights": [{"name": "StatefulPartitionedCall/functional_1/zero_padding2d_1/Const", "shape": [4, 2], "dtype": "int32"}, {"name": "StatefulPartitionedCall/functional_1/conv1_conv_1/convolution/merged_input", "shape": [7, 7, 3, 64], "dtype": "float32"}, {"name": "StatefulPartitionedCall/functional_1/conv1_bn_1/batchnorm/sub", "shape": [1, 1, 1, 64], "dtype": "float32"}, {"name": "StatefulPartitionedCall/functional_1/zero_padding2d_1_2/Const", "shape": [4, 2], "dtype": "int32"}, {"name": "StatefulPartitionedCall/functional_1/conv2_block1_0_bn_1/batchnorm/mul", "shape": [1, 1, 1, 64], "dtype": "float32"}, {"name": "StatefulPartitionedCall/functional_1/conv2_block1_0_bn_1/batchnorm/sub", "shape": [1, 1, 1, 64], "dtype": "float32"}, {"name": "StatefulPartitionedCall/functional_1/conv2_block1_1_conv_1/convolution/merged_input", "shape": [1, 1, 64, 128], "dtype": "float32"}, {"name": "StatefulPartitionedCall/functional_1/conv2_block1_1_bn_1/batchnorm/sub", "shape": [1, 1, 1, 128], "dtype": "float32"}, {"name": "StatefulPartitionedCall/functional_1/conv2_block1_2_conv_1/convolution/ReadVariableOp", "shape": [3, 3, 128, 32], "dtype": "float32"}, {"name": "StatefulPartitionedCall/functional_1/conv2_block1_concat_1/concat/axis", "shape": [], "dtype": "int32"}, {"name": "StatefulPartitionedCall/functional_1/conv2_block2_0_bn_1/batchnorm/mul", "shape": [1, 1, 1, 96], "dtype": "float32"}, {"name": "StatefulPartitionedCall/functional_1/conv2_block2_0_bn_1/batchnorm/sub", "shape": [1, 1, 1, 96], "dtype": "float32"}, {"name": "StatefulPartitionedCall/functional_1/conv2_block2_1_conv_1/convolution/merged_input", "shape": [1, 1, 96, 128], "dtype": "float32"}, {"name": "StatefulPartitionedCall/functional_1/conv2_block2_1_bn_1/batchnorm/sub", "shape": [1, 1, 1, 128], "dtype": "float32"}, {"name": "StatefulPartitionedCall/functional_1/conv2_block2_2_conv_1/convolution/ReadVariableOp", "shape": [3, 3, 128, 32], "dtype": "float32"}, {"name": "StatefulPartitionedCall/functional_1/conv2_block2_concat_1/concat/axis", "shape": [], "dtype": "int32"}, {"name": "StatefulPartitionedCall/functional_1/conv2_block3_0_bn_1/batchnorm/mul", "shape": [1, 1, 1, 128], "dtype": "float32"}, {"name": "StatefulPartitionedCall/functional_1/conv2_block3_0_bn_1/batchnorm/sub", "shape": [1, 1, 1, 128], "dtype": "float32"}, {"name": "StatefulPartitionedCall/functional_1/conv2_block3_1_conv_1/convolution/merged_input", "shape": [1, 1, 128, 128], "dtype": "float32"}, {"name": "StatefulPartitionedCall/functional_1/conv2_block3_1_bn_1/batchnorm/sub", "shape": [1, 1, 1, 128], "dtype": "float32"}, {"name": "StatefulPartitionedCall/functional_1/conv2_block3_2_conv_1/convolution/ReadVariableOp", "shape": [3, 3, 128, 32], "dtype": "float32"}, {"name": "StatefulPartitionedCall/functional_1/conv2_block3_concat_1/concat/axis", "shape": [], "dtype": "int32"}, {"name": "StatefulPartitionedCall/functional_1/conv2_block4_0_bn_1/batchnorm/mul", "shape": [1, 1, 1, 160], "dtype": "float32"}, {"name": "StatefulPartitionedCall/functional_1/conv2_block4_0_bn_1/batchnorm/sub", "shape": [1, 1, 1, 160], "dtype": "float32"}, {"name": "StatefulPartitionedCall/functional_1/conv2_block4_1_conv_1/convolution/merged_input", "shape": [1, 1, 160, 128], "dtype": "float32"}, {"name": "StatefulPartitionedCall/functional_1/conv2_block4_1_bn_1/batchnorm/sub", "shape": [1, 1, 1, 128], "dtype": "float32"}, {"name": "StatefulPartitionedCall/functional_1/conv2_block4_2_conv_1/convolution/ReadVariableOp", "shape": [3, 3, 128, 32], "dtype": "float32"}, {"name": "StatefulPartitionedCall/functional_1/conv2_block4_concat_1/concat/axis", "shape": [], "dtype": "int32"}, {"name": "StatefulPartitionedCall/functional_1/conv2_block5_0_bn_1/batchnorm/mul", "shape": [1, 1, 1, 192], "dtype": "float32"}, {"name": "StatefulPartitionedCall/functional_1/conv2_block5_0_bn_1/batchnorm/sub", "shape": [1, 1, 1, 192], "dtype": "float32"}, {"name": "StatefulPartitionedCall/functional_1/conv2_block5_1_conv_1/convolution/merged_input", "shape": [1, 1, 192, 128], "dtype": "float32"}, {"name": "StatefulPartitionedCall/functional_1/conv2_block5_1_bn_1/batchnorm/sub", "shape": [1, 1, 1, 128], "dtype": "float32"}, {"name": "StatefulPartitionedCall/functional_1/conv2_block5_2_conv_1/convolution/ReadVariableOp", "shape": [3, 3, 128, 32], "dtype": "float32"}, {"name": "StatefulPartitionedCall/functional_1/conv2_block5_concat_1/concat/axis", "shape": [], "dtype": "int32"}, {"name": "StatefulPartitionedCall/functional_1/conv2_block6_0_bn_1/batchnorm/mul", "shape": [1, 1, 1, 224], "dtype": "float32"}, {"name": "StatefulPartitionedCall/functional_1/conv2_block6_0_bn_1/batchnorm/sub", "shape": [1, 1, 1, 224], "dtype": "float32"}, {"name": "StatefulPartitionedCall/functional_1/conv2_block6_1_conv_1/convolution/merged_input", "shape": [1, 1, 224, 128], "dtype": "float32"}, {"name": "StatefulPartitionedCall/functional_1/conv2_block6_1_bn_1/batchnorm/sub", "shape": [1, 1, 1, 128], "dtype": "float32"}, {"name": "StatefulPartitionedCall/functional_1/conv2_block6_2_conv_1/convolution/ReadVariableOp", "shape": [3, 3, 128, 32], "dtype": "float32"}, {"name": "StatefulPartitionedCall/functional_1/conv2_block6_concat_1/concat/axis", "shape": [], "dtype": "int32"}, {"name": "StatefulPartitionedCall/functional_1/pool2_bn_1/batchnorm/mul", "shape": [1, 1, 1, 256], "dtype": "float32"}, {"name": "StatefulPartitionedCall/functional_1/pool2_bn_1/batchnorm/sub", "shape": [1, 1, 1, 256], "dtype": "float32"}, {"name": "StatefulPartitionedCall/functional_1/pool2_conv_1/convolution/ReadVariableOp", "shape": [1, 1, 256, 128], "dtype": "float32"}, {"name": "StatefulPartitionedCall/functional_1/conv3_block1_0_bn_1/batchnorm/mul", "shape": [1, 1, 1, 128], "dtype": "float32"}, {"name": "StatefulPartitionedCall/functional_1/conv3_block1_0_bn_1/batchnorm/sub", "shape": [1, 1, 1, 128], "dtype": "float32"}, {"name": "StatefulPartitionedCall/functional_1/conv3_block1_1_conv_1/convolution/merged_input", "shape": [1, 1, 128, 128], "dtype": "float32"}, {"name": "StatefulPartitionedCall/functional_1/conv3_block1_1_bn_1/batchnorm/sub", "shape": [1, 1, 1, 128], "dtype": "float32"}, {"name": "StatefulPartitionedCall/functional_1/conv3_block1_2_conv_1/convolution/ReadVariableOp", "shape": [3, 3, 128, 32], "dtype": "float32"}, {"name": "StatefulPartitionedCall/functional_1/conv3_block1_concat_1/concat/axis", "shape": [], "dtype": "int32"}, {"name": "StatefulPartitionedCall/functional_1/conv3_block2_0_bn_1/batchnorm/mul", "shape": [1, 1, 1, 160], "dtype": "float32"}, {"name": "StatefulPartitionedCall/functional_1/conv3_block2_0_bn_1/batchnorm/sub", "shape": [1, 1, 1, 160], "dtype": "float32"}, {"name": "StatefulPartitionedCall/functional_1/conv3_block2_1_conv_1/convolution/merged_input", "shape": [1, 1, 160, 128], "dtype": "float32"}, {"name": "StatefulPartitionedCall/functional_1/conv3_block2_1_bn_1/batchnorm/sub", "shape": [1, 1, 1, 128], "dtype": "float32"}, {"name": "StatefulPartitionedCall/functional_1/conv3_block2_2_conv_1/convolution/ReadVariableOp", "shape": [3, 3, 128, 32], "dtype": "float32"}, {"name": "StatefulPartitionedCall/functional_1/conv3_block2_concat_1/concat/axis", "shape": [], "dtype": "int32"}, {"name": "StatefulPartitionedCall/functional_1/conv3_block3_0_bn_1/batchnorm/mul", "shape": [1, 1, 1, 192], "dtype": "float32"}, {"name": "StatefulPartitionedCall/functional_1/conv3_block3_0_bn_1/batchnorm/sub", "shape": [1, 1, 1, 192], "dtype": "float32"}, {"name": "StatefulPartitionedCall/functional_1/conv3_block3_1_conv_1/convolution/merged_input", "shape": [1, 1, 192, 128], "dtype": "float32"}, {"name": "StatefulPartitionedCall/functional_1/conv3_block3_1_bn_1/batchnorm/sub", "shape": [1, 1, 1, 128], "dtype": "float32"}, {"name": "StatefulPartitionedCall/functional_1/conv3_block3_2_conv_1/convolution/ReadVariableOp", "shape": [3, 3, 128, 32], "dtype": "float32"}, {"name": "StatefulPartitionedCall/functional_1/conv3_block3_concat_1/concat/axis", "shape": [], "dtype": "int32"}, {"name": "StatefulPartitionedCall/functional_1/conv3_block4_0_bn_1/batchnorm/mul", "shape": [1, 1, 1, 224], "dtype": "float32"}, {"name": "StatefulPartitionedCall/functional_1/conv3_block4_0_bn_1/batchnorm/sub", "shape": [1, 1, 1, 224], "dtype": "float32"}, {"name": "StatefulPartitionedCall/functional_1/conv3_block4_1_conv_1/convolution/merged_input", "shape": [1, 1, 224, 128], "dtype": "float32"}, {"name": "StatefulPartitionedCall/functional_1/conv3_block4_1_bn_1/batchnorm/sub", "shape": [1, 1, 1, 128], "dtype": "float32"}, {"name": "StatefulPartitionedCall/functional_1/conv3_block4_2_conv_1/convolution/ReadVariableOp", "shape": [3, 3, 128, 32], "dtype": "float32"}, {"name": "StatefulPartitionedCall/functional_1/conv3_block4_concat_1/concat/axis", "shape": [], "dtype": "int32"}, {"name": "StatefulPartitionedCall/functional_1/conv3_block5_0_bn_1/batchnorm/mul", "shape": [1, 1, 1, 256], "dtype": "float32"}, {"name": "StatefulPartitionedCall/functional_1/conv3_block5_0_bn_1/batchnorm/sub", "shape": [1, 1, 1, 256], "dtype": "float32"}, {"name": "StatefulPartitionedCall/functional_1/conv3_block5_1_conv_1/convolution/merged_input", "shape": [1, 1, 256, 128], "dtype": "float32"}, {"name": "StatefulPartitionedCall/functional_1/conv3_block5_1_bn_1/batchnorm/sub", "shape": [1, 1, 1, 128], "dtype": "float32"}, {"name": "StatefulPartitionedCall/functional_1/conv3_block5_2_conv_1/convolution/ReadVariableOp", "shape": [3, 3, 128, 32], "dtype": "float32"}, {"name": "StatefulPartitionedCall/functional_1/conv3_block5_concat_1/concat/axis", "shape": [], "dtype": "int32"}, {"name": "StatefulPartitionedCall/functional_1/conv3_block6_0_bn_1/batchnorm/mul", "shape": [1, 1, 1, 288], "dtype": "float32"}, {"name": "StatefulPartitionedCall/functional_1/conv3_block6_0_bn_1/batchnorm/sub", "shape": [1, 1, 1, 288], "dtype": "float32"}, {"name": "StatefulPartitionedCall/functional_1/conv3_block6_1_conv_1/convolution/merged_input", "shape": [1, 1, 288, 128], "dtype": "float32"}, {"name": "StatefulPartitionedCall/functional_1/conv3_block6_1_bn_1/batchnorm/sub", "shape": [1, 1, 1, 128], "dtype": "float32"}, {"name": "StatefulPartitionedCall/functional_1/conv3_block6_2_conv_1/convolution/ReadVariableOp", "shape": [3, 3, 128, 32], "dtype": "float32"}, {"name": "StatefulPartitionedCall/functional_1/conv3_block6_concat_1/concat/axis", "shape": [], "dtype": "int32"}, {"name": "StatefulPartitionedCall/functional_1/conv3_block7_0_bn_1/batchnorm/mul", "shape": [1, 1, 1, 320], "dtype": "float32"}, {"name": "StatefulPartitionedCall/functional_1/conv3_block7_0_bn_1/batchnorm/sub", "shape": [1, 1, 1, 320], "dtype": "float32"}, {"name": "StatefulPartitionedCall/functional_1/conv3_block7_1_conv_1/convolution/merged_input", "shape": [1, 1, 320, 128], "dtype": "float32"}, {"name": "StatefulPartitionedCall/functional_1/conv3_block7_1_bn_1/batchnorm/sub", "shape": [1, 1, 1, 128], "dtype": "float32"}, {"name": "StatefulPartitionedCall/functional_1/conv3_block7_2_conv_1/convolution/ReadVariableOp", "shape": [3, 3, 128, 32], "dtype": "float32"}, {"name": "StatefulPartitionedCall/functional_1/conv3_block7_concat_1/concat/axis", "shape": [], "dtype": "int32"}, {"name": "StatefulPartitionedCall/functional_1/conv3_block8_0_bn_1/batchnorm/mul", "shape": [1, 1, 1, 352], "dtype": "float32"}, {"name": "StatefulPartitionedCall/functional_1/conv3_block8_0_bn_1/batchnorm/sub", "shape": [1, 1, 1, 352], "dtype": "float32"}, {"name": "StatefulPartitionedCall/functional_1/conv3_block8_1_conv_1/convolution/merged_input", "shape": [1, 1, 352, 128], "dtype": "float32"}, {"name": "StatefulPartitionedCall/functional_1/conv3_block8_1_bn_1/batchnorm/sub", "shape": [1, 1, 1, 128], "dtype": "float32"}, {"name": "StatefulPartitionedCall/functional_1/conv3_block8_2_conv_1/convolution/ReadVariableOp", "shape": [3, 3, 128, 32], "dtype": "float32"}, {"name": "StatefulPartitionedCall/functional_1/conv3_block8_concat_1/concat/axis", "shape": [], "dtype": "int32"}, {"name": "StatefulPartitionedCall/functional_1/conv3_block9_0_bn_1/batchnorm/mul", "shape": [1, 1, 1, 384], "dtype": "float32"}, {"name": "StatefulPartitionedCall/functional_1/conv3_block9_0_bn_1/batchnorm/sub", "shape": [1, 1, 1, 384], "dtype": "float32"}, {"name": "StatefulPartitionedCall/functional_1/conv3_block9_1_conv_1/convolution/merged_input", "shape": [1, 1, 384, 128], "dtype": "float32"}, {"name": "StatefulPartitionedCall/functional_1/conv3_block9_1_bn_1/batchnorm/sub", "shape": [1, 1, 1, 128], "dtype": "float32"}, {"name": "StatefulPartitionedCall/functional_1/conv3_block9_2_conv_1/convolution/ReadVariableOp", "shape": [3, 3, 128, 32], "dtype": "float32"}, {"name": "StatefulPartitionedCall/functional_1/conv3_block9_concat_1/concat/axis", "shape": [], "dtype": "int32"}, {"name": "StatefulPartitionedCall/functional_1/conv3_block10_0_bn_1/batchnorm/mul", "shape": [1, 1, 1, 416], "dtype": "float32"}, {"name": "StatefulPartitionedCall/functional_1/conv3_block10_0_bn_1/batchnorm/sub", "shape": [1, 1, 1, 416], "dtype": "float32"}, {"name": "StatefulPartitionedCall/functional_1/conv3_block10_1_conv_1/convolution/merged_input", "shape": [1, 1, 416, 128], "dtype": "float32"}, {"name": "StatefulPartitionedCall/functional_1/conv3_block10_1_bn_1/batchnorm/sub", "shape": [1, 1, 1, 128], "dtype": "float32"}, {"name": "StatefulPartitionedCall/functional_1/conv3_block10_2_conv_1/convolution/ReadVariableOp", "shape": [3, 3, 128, 32], "dtype": "float32"}, {"name": "StatefulPartitionedCall/functional_1/conv3_block10_concat_1/concat/axis", "shape": [], "dtype": "int32"}, {"name": "StatefulPartitionedCall/functional_1/conv3_block11_0_bn_1/batchnorm/mul", "shape": [1, 1, 1, 448], "dtype": "float32"}, {"name": "StatefulPartitionedCall/functional_1/conv3_block11_0_bn_1/batchnorm/sub", "shape": [1, 1, 1, 448], "dtype": "float32"}, {"name": "StatefulPartitionedCall/functional_1/conv3_block11_1_conv_1/convolution/merged_input", "shape": [1, 1, 448, 128], "dtype": "float32"}, {"name": "StatefulPartitionedCall/functional_1/conv3_block11_1_bn_1/batchnorm/sub", "shape": [1, 1, 1, 128], "dtype": "float32"}, {"name": "StatefulPartitionedCall/functional_1/conv3_block11_2_conv_1/convolution/ReadVariableOp", "shape": [3, 3, 128, 32], "dtype": "float32"}, {"name": "StatefulPartitionedCall/functional_1/conv3_block11_concat_1/concat/axis", "shape": [], "dtype": "int32"}, {"name": "StatefulPartitionedCall/functional_1/conv3_block12_0_bn_1/batchnorm/mul", "shape": [1, 1, 1, 480], "dtype": "float32"}, {"name": "StatefulPartitionedCall/functional_1/conv3_block12_0_bn_1/batchnorm/sub", "shape": [1, 1, 1, 480], "dtype": "float32"}, {"name": "StatefulPartitionedCall/functional_1/conv3_block12_1_conv_1/convolution/merged_input", "shape": [1, 1, 480, 128], "dtype": "float32"}, {"name": "StatefulPartitionedCall/functional_1/conv3_block12_1_bn_1/batchnorm/sub", "shape": [1, 1, 1, 128], "dtype": "float32"}, {"name": "StatefulPartitionedCall/functional_1/conv3_block12_2_conv_1/convolution/ReadVariableOp", "shape": [3, 3, 128, 32], "dtype": "float32"}, {"name": "StatefulPartitionedCall/functional_1/conv3_block12_concat_1/concat/axis", "shape": [], "dtype": "int32"}, {"name": "StatefulPartitionedCall/functional_1/pool3_bn_1/batchnorm/mul", "shape": [1, 1, 1, 512], "dtype": "float32"}, {"name": "StatefulPartitionedCall/functional_1/pool3_bn_1/batchnorm/sub", "shape": [1, 1, 1, 512], "dtype": "float32"}, {"name": "StatefulPartitionedCall/functional_1/pool3_conv_1/convolution/ReadVariableOp", "shape": [1, 1, 512, 256], "dtype": "float32"}, {"name": "StatefulPartitionedCall/functional_1/conv4_block1_0_bn_1/batchnorm/mul", "shape": [1, 1, 1, 256], "dtype": "float32"}, {"name": "StatefulPartitionedCall/functional_1/conv4_block1_0_bn_1/batchnorm/sub", "shape": [1, 1, 1, 256], "dtype": "float32"}, {"name": "StatefulPartitionedCall/functional_1/conv4_block1_1_conv_1/convolution/merged_input", "shape": [1, 1, 256, 128], "dtype": "float32"}, {"name": "StatefulPartitionedCall/functional_1/conv4_block1_1_bn_1/batchnorm/sub", "shape": [1, 1, 1, 128], "dtype": "float32"}, {"name": "StatefulPartitionedCall/functional_1/conv4_block1_2_conv_1/convolution/ReadVariableOp", "shape": [3, 3, 128, 32], "dtype": "float32"}, {"name": "StatefulPartitionedCall/functional_1/conv4_block1_concat_1/concat/axis", "shape": [], "dtype": "int32"}, {"name": "StatefulPartitionedCall/functional_1/conv4_block2_0_bn_1/batchnorm/mul", "shape": [1, 1, 1, 288], "dtype": "float32"}, {"name": "StatefulPartitionedCall/functional_1/conv4_block2_0_bn_1/batchnorm/sub", "shape": [1, 1, 1, 288], "dtype": "float32"}, {"name": "StatefulPartitionedCall/functional_1/conv4_block2_1_conv_1/convolution/merged_input", "shape": [1, 1, 288, 128], "dtype": "float32"}, {"name": "StatefulPartitionedCall/functional_1/conv4_block2_1_bn_1/batchnorm/sub", "shape": [1, 1, 1, 128], "dtype": "float32"}, {"name": "StatefulPartitionedCall/functional_1/conv4_block2_2_conv_1/convolution/ReadVariableOp", "shape": [3, 3, 128, 32], "dtype": "float32"}, {"name": "StatefulPartitionedCall/functional_1/conv4_block2_concat_1/concat/axis", "shape": [], "dtype": "int32"}, {"name": "StatefulPartitionedCall/functional_1/conv4_block3_0_bn_1/batchnorm/mul", "shape": [1, 1, 1, 320], "dtype": "float32"}, {"name": "StatefulPartitionedCall/functional_1/conv4_block3_0_bn_1/batchnorm/sub", "shape": [1, 1, 1, 320], "dtype": "float32"}, {"name": "StatefulPartitionedCall/functional_1/conv4_block3_1_conv_1/convolution/merged_input", "shape": [1, 1, 320, 128], "dtype": "float32"}, {"name": "StatefulPartitionedCall/functional_1/conv4_block3_1_bn_1/batchnorm/sub", "shape": [1, 1, 1, 128], "dtype": "float32"}, {"name": "StatefulPartitionedCall/functional_1/conv4_block3_2_conv_1/convolution/ReadVariableOp", "shape": [3, 3, 128, 32], "dtype": "float32"}, {"name": "StatefulPartitionedCall/functional_1/conv4_block3_concat_1/concat/axis", "shape": [], "dtype": "int32"}, {"name": "StatefulPartitionedCall/functional_1/conv4_block4_0_bn_1/batchnorm/mul", "shape": [1, 1, 1, 352], "dtype": "float32"}, {"name": "StatefulPartitionedCall/functional_1/conv4_block4_0_bn_1/batchnorm/sub", "shape": [1, 1, 1, 352], "dtype": "float32"}, {"name": "StatefulPartitionedCall/functional_1/conv4_block4_1_conv_1/convolution/merged_input", "shape": [1, 1, 352, 128], "dtype": "float32"}, {"name": "StatefulPartitionedCall/functional_1/conv4_block4_1_bn_1/batchnorm/sub", "shape": [1, 1, 1, 128], "dtype": "float32"}, {"name": "StatefulPartitionedCall/functional_1/conv4_block4_2_conv_1/convolution/ReadVariableOp", "shape": [3, 3, 128, 32], "dtype": "float32"}, {"name": "StatefulPartitionedCall/functional_1/conv4_block4_concat_1/concat/axis", "shape": [], "dtype": "int32"}, {"name": "StatefulPartitionedCall/functional_1/conv4_block5_0_bn_1/batchnorm/mul", "shape": [1, 1, 1, 384], "dtype": "float32"}, {"name": "StatefulPartitionedCall/functional_1/conv4_block5_0_bn_1/batchnorm/sub", "shape": [1, 1, 1, 384], "dtype": "float32"}, {"name": "StatefulPartitionedCall/functional_1/conv4_block5_1_conv_1/convolution/merged_input", "shape": [1, 1, 384, 128], "dtype": "float32"}, {"name": "StatefulPartitionedCall/functional_1/conv4_block5_1_bn_1/batchnorm/sub", "shape": [1, 1, 1, 128], "dtype": "float32"}, {"name": "StatefulPartitionedCall/functional_1/conv4_block5_2_conv_1/convolution/ReadVariableOp", "shape": [3, 3, 128, 32], "dtype": "float32"}, {"name": "StatefulPartitionedCall/functional_1/conv4_block5_concat_1/concat/axis", "shape": [], "dtype": "int32"}, {"name": "StatefulPartitionedCall/functional_1/conv4_block6_0_bn_1/batchnorm/mul", "shape": [1, 1, 1, 416], "dtype": "float32"}, {"name": "StatefulPartitionedCall/functional_1/conv4_block6_0_bn_1/batchnorm/sub", "shape": [1, 1, 1, 416], "dtype": "float32"}, {"name": "StatefulPartitionedCall/functional_1/conv4_block6_1_conv_1/convolution/merged_input", "shape": [1, 1, 416, 128], "dtype": "float32"}, {"name": "StatefulPartitionedCall/functional_1/conv4_block6_1_bn_1/batchnorm/sub", "shape": [1, 1, 1, 128], "dtype": "float32"}, {"name": "StatefulPartitionedCall/functional_1/conv4_block6_2_conv_1/convolution/ReadVariableOp", "shape": [3, 3, 128, 32], "dtype": "float32"}, {"name": "StatefulPartitionedCall/functional_1/conv4_block6_concat_1/concat/axis", "shape": [], "dtype": "int32"}, {"name": "StatefulPartitionedCall/functional_1/conv4_block7_0_bn_1/batchnorm/mul", "shape": [1, 1, 1, 448], "dtype": "float32"}, {"name": "StatefulPartitionedCall/functional_1/conv4_block7_0_bn_1/batchnorm/sub", "shape": [1, 1, 1, 448], "dtype": "float32"}, {"name": "StatefulPartitionedCall/functional_1/conv4_block7_1_conv_1/convolution/merged_input", "shape": [1, 1, 448, 128], "dtype": "float32"}, {"name": "StatefulPartitionedCall/functional_1/conv4_block7_1_bn_1/batchnorm/sub", "shape": [1, 1, 1, 128], "dtype": "float32"}, {"name": "StatefulPartitionedCall/functional_1/conv4_block7_2_conv_1/convolution/ReadVariableOp", "shape": [3, 3, 128, 32], "dtype": "float32"}, {"name": "StatefulPartitionedCall/functional_1/conv4_block7_concat_1/concat/axis", "shape": [], "dtype": "int32"}, {"name": "StatefulPartitionedCall/functional_1/conv4_block8_0_bn_1/batchnorm/mul", "shape": [1, 1, 1, 480], "dtype": "float32"}, {"name": "StatefulPartitionedCall/functional_1/conv4_block8_0_bn_1/batchnorm/sub", "shape": [1, 1, 1, 480], "dtype": "float32"}, {"name": "StatefulPartitionedCall/functional_1/conv4_block8_1_conv_1/convolution/merged_input", "shape": [1, 1, 480, 128], "dtype": "float32"}, {"name": "StatefulPartitionedCall/functional_1/conv4_block8_1_bn_1/batchnorm/sub", "shape": [1, 1, 1, 128], "dtype": "float32"}, {"name": "StatefulPartitionedCall/functional_1/conv4_block8_2_conv_1/convolution/ReadVariableOp", "shape": [3, 3, 128, 32], "dtype": "float32"}, {"name": "StatefulPartitionedCall/functional_1/conv4_block8_concat_1/concat/axis", "shape": [], "dtype": "int32"}, {"name": "StatefulPartitionedCall/functional_1/conv4_block9_0_bn_1/batchnorm/mul", "shape": [1, 1, 1, 512], "dtype": "float32"}, {"name": "StatefulPartitionedCall/functional_1/conv4_block9_0_bn_1/batchnorm/sub", "shape": [1, 1, 1, 512], "dtype": "float32"}, {"name": "StatefulPartitionedCall/functional_1/conv4_block9_1_conv_1/convolution/merged_input", "shape": [1, 1, 512, 128], "dtype": "float32"}, {"name": "StatefulPartitionedCall/functional_1/conv4_block9_1_bn_1/batchnorm/sub", "shape": [1, 1, 1, 128], "dtype": "float32"}, {"name": "StatefulPartitionedCall/functional_1/conv4_block9_2_conv_1/convolution/ReadVariableOp", "shape": [3, 3, 128, 32], "dtype": "float32"}, {"name": "StatefulPartitionedCall/functional_1/conv4_block9_concat_1/concat/axis", "shape": [], "dtype": "int32"}, {"name": "StatefulPartitionedCall/functional_1/conv4_block10_0_bn_1/batchnorm/mul", "shape": [1, 1, 1, 544], "dtype": "float32"}, {"name": "StatefulPartitionedCall/functional_1/conv4_block10_0_bn_1/batchnorm/sub", "shape": [1, 1, 1, 544], "dtype": "float32"}, {"name": "StatefulPartitionedCall/functional_1/conv4_block10_1_conv_1/convolution/merged_input", "shape": [1, 1, 544, 128], "dtype": "float32"}, {"name": "StatefulPartitionedCall/functional_1/conv4_block10_1_bn_1/batchnorm/sub", "shape": [1, 1, 1, 128], "dtype": "float32"}, {"name": "StatefulPartitionedCall/functional_1/conv4_block10_2_conv_1/convolution/ReadVariableOp", "shape": [3, 3, 128, 32], "dtype": "float32"}, {"name": "StatefulPartitionedCall/functional_1/conv4_block10_concat_1/concat/axis", "shape": [], "dtype": "int32"}, {"name": "StatefulPartitionedCall/functional_1/conv4_block11_0_bn_1/batchnorm/mul", "shape": [1, 1, 1, 576], "dtype": "float32"}, {"name": "StatefulPartitionedCall/functional_1/conv4_block11_0_bn_1/batchnorm/sub", "shape": [1, 1, 1, 576], "dtype": "float32"}, {"name": "StatefulPartitionedCall/functional_1/conv4_block11_1_conv_1/convolution/merged_input", "shape": [1, 1, 576, 128], "dtype": "float32"}, {"name": "StatefulPartitionedCall/functional_1/conv4_block11_1_bn_1/batchnorm/sub", "shape": [1, 1, 1, 128], "dtype": "float32"}, {"name": "StatefulPartitionedCall/functional_1/conv4_block11_2_conv_1/convolution/ReadVariableOp", "shape": [3, 3, 128, 32], "dtype": "float32"}, {"name": "StatefulPartitionedCall/functional_1/conv4_block11_concat_1/concat/axis", "shape": [], "dtype": "int32"}, {"name": "StatefulPartitionedCall/functional_1/conv4_block12_0_bn_1/batchnorm/mul", "shape": [1, 1, 1, 608], "dtype": "float32"}, {"name": "StatefulPartitionedCall/functional_1/conv4_block12_0_bn_1/batchnorm/sub", "shape": [1, 1, 1, 608], "dtype": "float32"}, {"name": "StatefulPartitionedCall/functional_1/conv4_block12_1_conv_1/convolution/merged_input", "shape": [1, 1, 608, 128], "dtype": "float32"}, {"name": "StatefulPartitionedCall/functional_1/conv4_block12_1_bn_1/batchnorm/sub", "shape": [1, 1, 1, 128], "dtype": "float32"}, {"name": "StatefulPartitionedCall/functional_1/conv4_block12_2_conv_1/convolution/ReadVariableOp", "shape": [3, 3, 128, 32], "dtype": "float32"}, {"name": "StatefulPartitionedCall/functional_1/conv4_block12_concat_1/concat/axis", "shape": [], "dtype": "int32"}, {"name": "StatefulPartitionedCall/functional_1/conv4_block13_0_bn_1/batchnorm/mul", "shape": [1, 1, 1, 640], "dtype": "float32"}, {"name": "StatefulPartitionedCall/functional_1/conv4_block13_0_bn_1/batchnorm/sub", "shape": [1, 1, 1, 640], "dtype": "float32"}, {"name": "StatefulPartitionedCall/functional_1/conv4_block13_1_conv_1/convolution/merged_input", "shape": [1, 1, 640, 128], "dtype": "float32"}, {"name": "StatefulPartitionedCall/functional_1/conv4_block13_1_bn_1/batchnorm/sub", "shape": [1, 1, 1, 128], "dtype": "float32"}, {"name": "StatefulPartitionedCall/functional_1/conv4_block13_2_conv_1/convolution/ReadVariableOp", "shape": [3, 3, 128, 32], "dtype": "float32"}, {"name": "StatefulPartitionedCall/functional_1/conv4_block13_concat_1/concat/axis", "shape": [], "dtype": "int32"}, {"name": "StatefulPartitionedCall/functional_1/conv4_block14_0_bn_1/batchnorm/mul", "shape": [1, 1, 1, 672], "dtype": "float32"}, {"name": "StatefulPartitionedCall/functional_1/conv4_block14_0_bn_1/batchnorm/sub", "shape": [1, 1, 1, 672], "dtype": "float32"}, {"name": "StatefulPartitionedCall/functional_1/conv4_block14_1_conv_1/convolution/merged_input", "shape": [1, 1, 672, 128], "dtype": "float32"}, {"name": "StatefulPartitionedCall/functional_1/conv4_block14_1_bn_1/batchnorm/sub", "shape": [1, 1, 1, 128], "dtype": "float32"}, {"name": "StatefulPartitionedCall/functional_1/conv4_block14_2_conv_1/convolution/ReadVariableOp", "shape": [3, 3, 128, 32], "dtype": "float32"}, {"name": "StatefulPartitionedCall/functional_1/conv4_block14_concat_1/concat/axis", "shape": [], "dtype": "int32"}, {"name": "StatefulPartitionedCall/functional_1/conv4_block15_0_bn_1/batchnorm/mul", "shape": [1, 1, 1, 704], "dtype": "float32"}, {"name": "StatefulPartitionedCall/functional_1/conv4_block15_0_bn_1/batchnorm/sub", "shape": [1, 1, 1, 704], "dtype": "float32"}, {"name": "StatefulPartitionedCall/functional_1/conv4_block15_1_conv_1/convolution/merged_input", "shape": [1, 1, 704, 128], "dtype": "float32"}, {"name": "StatefulPartitionedCall/functional_1/conv4_block15_1_bn_1/batchnorm/sub", "shape": [1, 1, 1, 128], "dtype": "float32"}, {"name": "StatefulPartitionedCall/functional_1/conv4_block15_2_conv_1/convolution/ReadVariableOp", "shape": [3, 3, 128, 32], "dtype": "float32"}, {"name": "StatefulPartitionedCall/functional_1/conv4_block15_concat_1/concat/axis", "shape": [], "dtype": "int32"}, {"name": "StatefulPartitionedCall/functional_1/conv4_block16_0_bn_1/batchnorm/mul", "shape": [1, 1, 1, 736], "dtype": "float32"}, {"name": "StatefulPartitionedCall/functional_1/conv4_block16_0_bn_1/batchnorm/sub", "shape": [1, 1, 1, 736], "dtype": "float32"}, {"name": "StatefulPartitionedCall/functional_1/conv4_block16_1_conv_1/convolution/merged_input", "shape": [1, 1, 736, 128], "dtype": "float32"}, {"name": "StatefulPartitionedCall/functional_1/conv4_block16_1_bn_1/batchnorm/sub", "shape": [1, 1, 1, 128], "dtype": "float32"}, {"name": "StatefulPartitionedCall/functional_1/conv4_block16_2_conv_1/convolution/ReadVariableOp", "shape": [3, 3, 128, 32], "dtype": "float32"}, {"name": "StatefulPartitionedCall/functional_1/conv4_block16_concat_1/concat/axis", "shape": [], "dtype": "int32"}, {"name": "StatefulPartitionedCall/functional_1/conv4_block17_0_bn_1/batchnorm/mul", "shape": [1, 1, 1, 768], "dtype": "float32"}, {"name": "StatefulPartitionedCall/functional_1/conv4_block17_0_bn_1/batchnorm/sub", "shape": [1, 1, 1, 768], "dtype": "float32"}, {"name": "StatefulPartitionedCall/functional_1/conv4_block17_1_conv_1/convolution/merged_input", "shape": [1, 1, 768, 128], "dtype": "float32"}, {"name": "StatefulPartitionedCall/functional_1/conv4_block17_1_bn_1/batchnorm/sub", "shape": [1, 1, 1, 128], "dtype": "float32"}, {"name": "StatefulPartitionedCall/functional_1/conv4_block17_2_conv_1/convolution/ReadVariableOp", "shape": [3, 3, 128, 32], "dtype": "float32"}, {"name": "StatefulPartitionedCall/functional_1/conv4_block17_concat_1/concat/axis", "shape": [], "dtype": "int32"}, {"name": "StatefulPartitionedCall/functional_1/conv4_block18_0_bn_1/batchnorm/mul", "shape": [1, 1, 1, 800], "dtype": "float32"}, {"name": "StatefulPartitionedCall/functional_1/conv4_block18_0_bn_1/batchnorm/sub", "shape": [1, 1, 1, 800], "dtype": "float32"}, {"name": "StatefulPartitionedCall/functional_1/conv4_block18_1_conv_1/convolution/merged_input", "shape": [1, 1, 800, 128], "dtype": "float32"}, {"name": "StatefulPartitionedCall/functional_1/conv4_block18_1_bn_1/batchnorm/sub", "shape": [1, 1, 1, 128], "dtype": "float32"}, {"name": "StatefulPartitionedCall/functional_1/conv4_block18_2_conv_1/convolution/ReadVariableOp", "shape": [3, 3, 128, 32], "dtype": "float32"}, {"name": "StatefulPartitionedCall/functional_1/conv4_block18_concat_1/concat/axis", "shape": [], "dtype": "int32"}, {"name": "StatefulPartitionedCall/functional_1/conv4_block19_0_bn_1/batchnorm/mul", "shape": [1, 1, 1, 832], "dtype": "float32"}, {"name": "StatefulPartitionedCall/functional_1/conv4_block19_0_bn_1/batchnorm/sub", "shape": [1, 1, 1, 832], "dtype": "float32"}, {"name": "StatefulPartitionedCall/functional_1/conv4_block19_1_conv_1/convolution/merged_input", "shape": [1, 1, 832, 128], "dtype": "float32"}, {"name": "StatefulPartitionedCall/functional_1/conv4_block19_1_bn_1/batchnorm/sub", "shape": [1, 1, 1, 128], "dtype": "float32"}, {"name": "StatefulPartitionedCall/functional_1/conv4_block19_2_conv_1/convolution/ReadVariableOp", "shape": [3, 3, 128, 32], "dtype": "float32"}, {"name": "StatefulPartitionedCall/functional_1/conv4_block19_concat_1/concat/axis", "shape": [], "dtype": "int32"}, {"name": "StatefulPartitionedCall/functional_1/conv4_block20_0_bn_1/batchnorm/mul", "shape": [1, 1, 1, 864], "dtype": "float32"}, {"name": "StatefulPartitionedCall/functional_1/conv4_block20_0_bn_1/batchnorm/sub", "shape": [1, 1, 1, 864], "dtype": "float32"}, {"name": "StatefulPartitionedCall/functional_1/conv4_block20_1_conv_1/convolution/merged_input", "shape": [1, 1, 864, 128], "dtype": "float32"}, {"name": "StatefulPartitionedCall/functional_1/conv4_block20_1_bn_1/batchnorm/sub", "shape": [1, 1, 1, 128], "dtype": "float32"}, {"name": "StatefulPartitionedCall/functional_1/conv4_block20_2_conv_1/convolution/ReadVariableOp", "shape": [3, 3, 128, 32], "dtype": "float32"}, {"name": "StatefulPartitionedCall/functional_1/conv4_block20_concat_1/concat/axis", "shape": [], "dtype": "int32"}, {"name": "StatefulPartitionedCall/functional_1/conv4_block21_0_bn_1/batchnorm/mul", "shape": [1, 1, 1, 896], "dtype": "float32"}, {"name": "StatefulPartitionedCall/functional_1/conv4_block21_0_bn_1/batchnorm/sub", "shape": [1, 1, 1, 896], "dtype": "float32"}, {"name": "StatefulPartitionedCall/functional_1/conv4_block21_1_conv_1/convolution/merged_input", "shape": [1, 1, 896, 128], "dtype": "float32"}, {"name": "StatefulPartitionedCall/functional_1/conv4_block21_1_bn_1/batchnorm/sub", "shape": [1, 1, 1, 128], "dtype": "float32"}, {"name": "StatefulPartitionedCall/functional_1/conv4_block21_2_conv_1/convolution/ReadVariableOp", "shape": [3, 3, 128, 32], "dtype": "float32"}, {"name": "StatefulPartitionedCall/functional_1/conv4_block21_concat_1/concat/axis", "shape": [], "dtype": "int32"}, {"name": "StatefulPartitionedCall/functional_1/conv4_block22_0_bn_1/batchnorm/mul", "shape": [1, 1, 1, 928], "dtype": "float32"}, {"name": "StatefulPartitionedCall/functional_1/conv4_block22_0_bn_1/batchnorm/sub", "shape": [1, 1, 1, 928], "dtype": "float32"}, {"name": "StatefulPartitionedCall/functional_1/conv4_block22_1_conv_1/convolution/merged_input", "shape": [1, 1, 928, 128], "dtype": "float32"}, {"name": "StatefulPartitionedCall/functional_1/conv4_block22_1_bn_1/batchnorm/sub", "shape": [1, 1, 1, 128], "dtype": "float32"}, {"name": "StatefulPartitionedCall/functional_1/conv4_block22_2_conv_1/convolution/ReadVariableOp", "shape": [3, 3, 128, 32], "dtype": "float32"}, {"name": "StatefulPartitionedCall/functional_1/conv4_block22_concat_1/concat/axis", "shape": [], "dtype": "int32"}, {"name": "StatefulPartitionedCall/functional_1/conv4_block23_0_bn_1/batchnorm/mul", "shape": [1, 1, 1, 960], "dtype": "float32"}, {"name": "StatefulPartitionedCall/functional_1/conv4_block23_0_bn_1/batchnorm/sub", "shape": [1, 1, 1, 960], "dtype": "float32"}, {"name": "StatefulPartitionedCall/functional_1/conv4_block23_1_conv_1/convolution/merged_input", "shape": [1, 1, 960, 128], "dtype": "float32"}, {"name": "StatefulPartitionedCall/functional_1/conv4_block23_1_bn_1/batchnorm/sub", "shape": [1, 1, 1, 128], "dtype": "float32"}, {"name": "StatefulPartitionedCall/functional_1/conv4_block23_2_conv_1/convolution/ReadVariableOp", "shape": [3, 3, 128, 32], "dtype": "float32"}, {"name": "StatefulPartitionedCall/functional_1/conv4_block23_concat_1/concat/axis", "shape": [], "dtype": "int32"}, {"name": "StatefulPartitionedCall/functional_1/conv4_block24_0_bn_1/batchnorm/mul", "shape": [1, 1, 1, 992], "dtype": "float32"}, {"name": "StatefulPartitionedCall/functional_1/conv4_block24_0_bn_1/batchnorm/sub", "shape": [1, 1, 1, 992], "dtype": "float32"}, {"name": "StatefulPartitionedCall/functional_1/conv4_block24_1_conv_1/convolution/merged_input", "shape": [1, 1, 992, 128], "dtype": "float32"}, {"name": "StatefulPartitionedCall/functional_1/conv4_block24_1_bn_1/batchnorm/sub", "shape": [1, 1, 1, 128], "dtype": "float32"}, {"name": "StatefulPartitionedCall/functional_1/conv4_block24_2_conv_1/convolution/ReadVariableOp", "shape": [3, 3, 128, 32], "dtype": "float32"}, {"name": "StatefulPartitionedCall/functional_1/conv4_block24_concat_1/concat/axis", "shape": [], "dtype": "int32"}, {"name": "StatefulPartitionedCall/functional_1/pool4_bn_1/batchnorm/mul", "shape": [1, 1, 1, 1024], "dtype": "float32"}, {"name": "StatefulPartitionedCall/functional_1/pool4_bn_1/batchnorm/sub", "shape": [1, 1, 1, 1024], "dtype": "float32"}, {"name": "StatefulPartitionedCall/functional_1/pool4_conv_1/convolution/ReadVariableOp", "shape": [1, 1, 1024, 512], "dtype": "float32"}, {"name": "StatefulPartitionedCall/functional_1/conv5_block1_0_bn_1/batchnorm/mul", "shape": [1, 1, 1, 512], "dtype": "float32"}, {"name": "StatefulPartitionedCall/functional_1/conv5_block1_0_bn_1/batchnorm/sub", "shape": [1, 1, 1, 512], "dtype": "float32"}, {"name": "StatefulPartitionedCall/functional_1/conv5_block1_1_conv_1/convolution/merged_input", "shape": [1, 1, 512, 128], "dtype": "float32"}, {"name": "StatefulPartitionedCall/functional_1/conv5_block1_1_bn_1/batchnorm/sub", "shape": [1, 1, 1, 128], "dtype": "float32"}, {"name": "StatefulPartitionedCall/functional_1/conv5_block1_2_conv_1/convolution/ReadVariableOp", "shape": [3, 3, 128, 32], "dtype": "float32"}, {"name": "StatefulPartitionedCall/functional_1/conv5_block1_concat_1/concat/axis", "shape": [], "dtype": "int32"}, {"name": "StatefulPartitionedCall/functional_1/conv5_block2_0_bn_1/batchnorm/mul", "shape": [1, 1, 1, 544], "dtype": "float32"}, {"name": "StatefulPartitionedCall/functional_1/conv5_block2_0_bn_1/batchnorm/sub", "shape": [1, 1, 1, 544], "dtype": "float32"}, {"name": "StatefulPartitionedCall/functional_1/conv5_block2_1_conv_1/convolution/merged_input", "shape": [1, 1, 544, 128], "dtype": "float32"}, {"name": "StatefulPartitionedCall/functional_1/conv5_block2_1_bn_1/batchnorm/sub", "shape": [1, 1, 1, 128], "dtype": "float32"}, {"name": "StatefulPartitionedCall/functional_1/conv5_block2_2_conv_1/convolution/ReadVariableOp", "shape": [3, 3, 128, 32], "dtype": "float32"}, {"name": "StatefulPartitionedCall/functional_1/conv5_block2_concat_1/concat/axis", "shape": [], "dtype": "int32"}, {"name": "StatefulPartitionedCall/functional_1/conv5_block3_0_bn_1/batchnorm/mul", "shape": [1, 1, 1, 576], "dtype": "float32"}, {"name": "StatefulPartitionedCall/functional_1/conv5_block3_0_bn_1/batchnorm/sub", "shape": [1, 1, 1, 576], "dtype": "float32"}, {"name": "StatefulPartitionedCall/functional_1/conv5_block3_1_conv_1/convolution/merged_input", "shape": [1, 1, 576, 128], "dtype": "float32"}, {"name": "StatefulPartitionedCall/functional_1/conv5_block3_1_bn_1/batchnorm/sub", "shape": [1, 1, 1, 128], "dtype": "float32"}, {"name": "StatefulPartitionedCall/functional_1/conv5_block3_2_conv_1/convolution/ReadVariableOp", "shape": [3, 3, 128, 32], "dtype": "float32"}, {"name": "StatefulPartitionedCall/functional_1/conv5_block3_concat_1/concat/axis", "shape": [], "dtype": "int32"}, {"name": "StatefulPartitionedCall/functional_1/conv5_block4_0_bn_1/batchnorm/mul", "shape": [1, 1, 1, 608], "dtype": "float32"}, {"name": "StatefulPartitionedCall/functional_1/conv5_block4_0_bn_1/batchnorm/sub", "shape": [1, 1, 1, 608], "dtype": "float32"}, {"name": "StatefulPartitionedCall/functional_1/conv5_block4_1_conv_1/convolution/merged_input", "shape": [1, 1, 608, 128], "dtype": "float32"}, {"name": "StatefulPartitionedCall/functional_1/conv5_block4_1_bn_1/batchnorm/sub", "shape": [1, 1, 1, 128], "dtype": "float32"}, {"name": "StatefulPartitionedCall/functional_1/conv5_block4_2_conv_1/convolution/ReadVariableOp", "shape": [3, 3, 128, 32], "dtype": "float32"}, {"name": "StatefulPartitionedCall/functional_1/conv5_block4_concat_1/concat/axis", "shape": [], "dtype": "int32"}, {"name": "StatefulPartitionedCall/functional_1/conv5_block5_0_bn_1/batchnorm/mul", "shape": [1, 1, 1, 640], "dtype": "float32"}, {"name": "StatefulPartitionedCall/functional_1/conv5_block5_0_bn_1/batchnorm/sub", "shape": [1, 1, 1, 640], "dtype": "float32"}, {"name": "StatefulPartitionedCall/functional_1/conv5_block5_1_conv_1/convolution/merged_input", "shape": [1, 1, 640, 128], "dtype": "float32"}, {"name": "StatefulPartitionedCall/functional_1/conv5_block5_1_bn_1/batchnorm/sub", "shape": [1, 1, 1, 128], "dtype": "float32"}, {"name": "StatefulPartitionedCall/functional_1/conv5_block5_2_conv_1/convolution/ReadVariableOp", "shape": [3, 3, 128, 32], "dtype": "float32"}, {"name": "StatefulPartitionedCall/functional_1/conv5_block5_concat_1/concat/axis", "shape": [], "dtype": "int32"}, {"name": "StatefulPartitionedCall/functional_1/conv5_block6_0_bn_1/batchnorm/mul", "shape": [1, 1, 1, 672], "dtype": "float32"}, {"name": "StatefulPartitionedCall/functional_1/conv5_block6_0_bn_1/batchnorm/sub", "shape": [1, 1, 1, 672], "dtype": "float32"}, {"name": "StatefulPartitionedCall/functional_1/conv5_block6_1_conv_1/convolution/merged_input", "shape": [1, 1, 672, 128], "dtype": "float32"}, {"name": "StatefulPartitionedCall/functional_1/conv5_block6_1_bn_1/batchnorm/sub", "shape": [1, 1, 1, 128], "dtype": "float32"}, {"name": "StatefulPartitionedCall/functional_1/conv5_block6_2_conv_1/convolution/ReadVariableOp", "shape": [3, 3, 128, 32], "dtype": "float32"}, {"name": "StatefulPartitionedCall/functional_1/conv5_block6_concat_1/concat/axis", "shape": [], "dtype": "int32"}, {"name": "StatefulPartitionedCall/functional_1/conv5_block7_0_bn_1/batchnorm/mul", "shape": [1, 1, 1, 704], "dtype": "float32"}, {"name": "StatefulPartitionedCall/functional_1/conv5_block7_0_bn_1/batchnorm/sub", "shape": [1, 1, 1, 704], "dtype": "float32"}, {"name": "StatefulPartitionedCall/functional_1/conv5_block7_1_conv_1/convolution/merged_input", "shape": [1, 1, 704, 128], "dtype": "float32"}, {"name": "StatefulPartitionedCall/functional_1/conv5_block7_1_bn_1/batchnorm/sub", "shape": [1, 1, 1, 128], "dtype": "float32"}, {"name": "StatefulPartitionedCall/functional_1/conv5_block7_2_conv_1/convolution/ReadVariableOp", "shape": [3, 3, 128, 32], "dtype": "float32"}, {"name": "StatefulPartitionedCall/functional_1/conv5_block7_concat_1/concat/axis", "shape": [], "dtype": "int32"}, {"name": "StatefulPartitionedCall/functional_1/conv5_block8_0_bn_1/batchnorm/mul", "shape": [1, 1, 1, 736], "dtype": "float32"}, {"name": "StatefulPartitionedCall/functional_1/conv5_block8_0_bn_1/batchnorm/sub", "shape": [1, 1, 1, 736], "dtype": "float32"}, {"name": "StatefulPartitionedCall/functional_1/conv5_block8_1_conv_1/convolution/merged_input", "shape": [1, 1, 736, 128], "dtype": "float32"}, {"name": "StatefulPartitionedCall/functional_1/conv5_block8_1_bn_1/batchnorm/sub", "shape": [1, 1, 1, 128], "dtype": "float32"}, {"name": "StatefulPartitionedCall/functional_1/conv5_block8_2_conv_1/convolution/ReadVariableOp", "shape": [3, 3, 128, 32], "dtype": "float32"}, {"name": "StatefulPartitionedCall/functional_1/conv5_block8_concat_1/concat/axis", "shape": [], "dtype": "int32"}, {"name": "StatefulPartitionedCall/functional_1/conv5_block9_0_bn_1/batchnorm/mul", "shape": [1, 1, 1, 768], "dtype": "float32"}, {"name": "StatefulPartitionedCall/functional_1/conv5_block9_0_bn_1/batchnorm/sub", "shape": [1, 1, 1, 768], "dtype": "float32"}, {"name": "StatefulPartitionedCall/functional_1/conv5_block9_1_conv_1/convolution/merged_input", "shape": [1, 1, 768, 128], "dtype": "float32"}, {"name": "StatefulPartitionedCall/functional_1/conv5_block9_1_bn_1/batchnorm/sub", "shape": [1, 1, 1, 128], "dtype": "float32"}, {"name": "StatefulPartitionedCall/functional_1/conv5_block9_2_conv_1/convolution/ReadVariableOp", "shape": [3, 3, 128, 32], "dtype": "float32"}, {"name": "StatefulPartitionedCall/functional_1/conv5_block9_concat_1/concat/axis", "shape": [], "dtype": "int32"}, {"name": "StatefulPartitionedCall/functional_1/conv5_block10_0_bn_1/batchnorm/mul", "shape": [1, 1, 1, 800], "dtype": "float32"}, {"name": "StatefulPartitionedCall/functional_1/conv5_block10_0_bn_1/batchnorm/sub", "shape": [1, 1, 1, 800], "dtype": "float32"}, {"name": "StatefulPartitionedCall/functional_1/conv5_block10_1_conv_1/convolution/merged_input", "shape": [1, 1, 800, 128], "dtype": "float32"}, {"name": "StatefulPartitionedCall/functional_1/conv5_block10_1_bn_1/batchnorm/sub", "shape": [1, 1, 1, 128], "dtype": "float32"}, {"name": "StatefulPartitionedCall/functional_1/conv5_block10_2_conv_1/convolution/ReadVariableOp", "shape": [3, 3, 128, 32], "dtype": "float32"}, {"name": "StatefulPartitionedCall/functional_1/conv5_block10_concat_1/concat/axis", "shape": [], "dtype": "int32"}, {"name": "StatefulPartitionedCall/functional_1/conv5_block11_0_bn_1/batchnorm/mul", "shape": [1, 1, 1, 832], "dtype": "float32"}, {"name": "StatefulPartitionedCall/functional_1/conv5_block11_0_bn_1/batchnorm/sub", "shape": [1, 1, 1, 832], "dtype": "float32"}, {"name": "StatefulPartitionedCall/functional_1/conv5_block11_1_conv_1/convolution/merged_input", "shape": [1, 1, 832, 128], "dtype": "float32"}, {"name": "StatefulPartitionedCall/functional_1/conv5_block11_1_bn_1/batchnorm/sub", "shape": [1, 1, 1, 128], "dtype": "float32"}, {"name": "StatefulPartitionedCall/functional_1/conv5_block11_2_conv_1/convolution/ReadVariableOp", "shape": [3, 3, 128, 32], "dtype": "float32"}, {"name": "StatefulPartitionedCall/functional_1/conv5_block11_concat_1/concat/axis", "shape": [], "dtype": "int32"}, {"name": "StatefulPartitionedCall/functional_1/conv5_block12_0_bn_1/batchnorm/mul", "shape": [1, 1, 1, 864], "dtype": "float32"}, {"name": "StatefulPartitionedCall/functional_1/conv5_block12_0_bn_1/batchnorm/sub", "shape": [1, 1, 1, 864], "dtype": "float32"}, {"name": "StatefulPartitionedCall/functional_1/conv5_block12_1_conv_1/convolution/merged_input", "shape": [1, 1, 864, 128], "dtype": "float32"}, {"name": "StatefulPartitionedCall/functional_1/conv5_block12_1_bn_1/batchnorm/sub", "shape": [1, 1, 1, 128], "dtype": "float32"}, {"name": "StatefulPartitionedCall/functional_1/conv5_block12_2_conv_1/convolution/ReadVariableOp", "shape": [3, 3, 128, 32], "dtype": "float32"}, {"name": "StatefulPartitionedCall/functional_1/conv5_block12_concat_1/concat/axis", "shape": [], "dtype": "int32"}, {"name": "StatefulPartitionedCall/functional_1/conv5_block13_0_bn_1/batchnorm/mul", "shape": [1, 1, 1, 896], "dtype": "float32"}, {"name": "StatefulPartitionedCall/functional_1/conv5_block13_0_bn_1/batchnorm/sub", "shape": [1, 1, 1, 896], "dtype": "float32"}, {"name": "StatefulPartitionedCall/functional_1/conv5_block13_1_conv_1/convolution/merged_input", "shape": [1, 1, 896, 128], "dtype": "float32"}, {"name": "StatefulPartitionedCall/functional_1/conv5_block13_1_bn_1/batchnorm/sub", "shape": [1, 1, 1, 128], "dtype": "float32"}, {"name": "StatefulPartitionedCall/functional_1/conv5_block13_2_conv_1/convolution/ReadVariableOp", "shape": [3, 3, 128, 32], "dtype": "float32"}, {"name": "StatefulPartitionedCall/functional_1/conv5_block13_concat_1/concat/axis", "shape": [], "dtype": "int32"}, {"name": "StatefulPartitionedCall/functional_1/conv5_block14_0_bn_1/batchnorm/mul", "shape": [1, 1, 1, 928], "dtype": "float32"}, {"name": "StatefulPartitionedCall/functional_1/conv5_block14_0_bn_1/batchnorm/sub", "shape": [1, 1, 1, 928], "dtype": "float32"}, {"name": "StatefulPartitionedCall/functional_1/conv5_block14_1_conv_1/convolution/merged_input", "shape": [1, 1, 928, 128], "dtype": "float32"}, {"name": "StatefulPartitionedCall/functional_1/conv5_block14_1_bn_1/batchnorm/sub", "shape": [1, 1, 1, 128], "dtype": "float32"}, {"name": "StatefulPartitionedCall/functional_1/conv5_block14_2_conv_1/convolution/ReadVariableOp", "shape": [3, 3, 128, 32], "dtype": "float32"}, {"name": "StatefulPartitionedCall/functional_1/conv5_block14_concat_1/concat/axis", "shape": [], "dtype": "int32"}, {"name": "StatefulPartitionedCall/functional_1/conv5_block15_0_bn_1/batchnorm/mul", "shape": [1, 1, 1, 960], "dtype": "float32"}, {"name": "StatefulPartitionedCall/functional_1/conv5_block15_0_bn_1/batchnorm/sub", "shape": [1, 1, 1, 960], "dtype": "float32"}, {"name": "StatefulPartitionedCall/functional_1/conv5_block15_1_conv_1/convolution/merged_input", "shape": [1, 1, 960, 128], "dtype": "float32"}, {"name": "StatefulPartitionedCall/functional_1/conv5_block15_1_bn_1/batchnorm/sub", "shape": [1, 1, 1, 128], "dtype": "float32"}, {"name": "StatefulPartitionedCall/functional_1/conv5_block15_2_conv_1/convolution/ReadVariableOp", "shape": [3, 3, 128, 32], "dtype": "float32"}, {"name": "StatefulPartitionedCall/functional_1/conv5_block15_concat_1/concat/axis", "shape": [], "dtype": "int32"}, {"name": "StatefulPartitionedCall/functional_1/conv5_block16_0_bn_1/batchnorm/mul", "shape": [1, 1, 1, 992], "dtype": "float32"}, {"name": "StatefulPartitionedCall/functional_1/conv5_block16_0_bn_1/batchnorm/sub", "shape": [1, 1, 1, 992], "dtype": "float32"}, {"name": "StatefulPartitionedCall/functional_1/conv5_block16_1_conv_1/convolution/merged_input", "shape": [1, 1, 992, 128], "dtype": "float32"}, {"name": "StatefulPartitionedCall/functional_1/conv5_block16_1_bn_1/batchnorm/sub", "shape": [1, 1, 1, 128], "dtype": "float32"}, {"name": "StatefulPartitionedCall/functional_1/conv5_block16_2_conv_1/convolution/ReadVariableOp", "shape": [3, 3, 128, 32], "dtype": "float32"}, {"name": "StatefulPartitionedCall/functional_1/conv5_block16_concat_1/concat/axis", "shape": [], "dtype": "int32"}, {"name": "StatefulPartitionedCall/functional_1/bn_1/batchnorm/mul", "shape": [1, 1, 1, 1024], "dtype": "float32"}, {"name": "StatefulPartitionedCall/functional_1/bn_1/batchnorm/sub", "shape": [1, 1, 1, 1024], "dtype": "float32"}, {"name": "StatefulPartitionedCall/functional_1/global_average_pooling2d_1/Mean/reduction_indices", "shape": [2], "dtype": "int32"}, {"name": "StatefulPartitionedCall/functional_1/batch_normalization_1/batchnorm/mul", "shape": [1024], "dtype": "float32"}, {"name": "StatefulPartitionedCall/functional_1/batch_normalization_1/batchnorm/sub", "shape": [1024], "dtype": "float32"}, {"name": "StatefulPartitionedCall/functional_1/dense_1/Cast/ReadVariableOp", "shape": [1024, 256], "dtype": "float32"}, {"name": "StatefulPartitionedCall/functional_1/dense_1/BiasAdd/ReadVariableOp", "shape": [256], "dtype": "float32"}, {"name": "StatefulPartitionedCall/functional_1/dense_1_2/Cast/ReadVariableOp", "shape": [256, 5], "dtype": "float32"}, {"name": "StatefulPartitionedCall/functional_1/dense_1_2/BiasAdd/ReadVariableOp", "shape": [5], "dtype": "float32"}]}]}